{"format": "graph-model", "generatedBy": "2.11.0", "convertedBy": "TensorFlow.js Converter v4.1.0", "signature": {"inputs": {"images": {"name": "images:0", "dtype": "DT_FLOAT", "tensorShape": {"dim": [{"size": "1"}, {"size": "480"}, {"size": "640"}, {"size": "3"}]}}}, "outputs": {"tf.concat_98": {"name": "Identity:0", "dtype": "DT_INT64", "tensorShape": {"dim": [{"size": "-1"}, {"size": "6"}]}}, "tf.strided_slice_3": {"name": "Identity_1:0", "dtype": "DT_FLOAT", "tensorShape": {"dim": [{"size": "-1"}, {"size": "1"}]}}}}, "modelTopology": {"node": [{"name": "PartitionedCall/model/tf.compat.v1.gather_90/GatherV2/indices", "op": "Const", "attr": {"dtype": {"type": "DT_INT64"}, "value": {"tensor": {"dtype": "DT_INT64", "tensorShape": {}}}}}, {"name": "PartitionedCall/model/tf.compat.v1.gather_90/GatherV2/axis", "op": "Const", "attr": {"dtype": {"type": "DT_INT32"}, "value": {"tensor": {"dtype": "DT_INT32", "tensorShape": {}}}}}, {"name": "PartitionedCall/model/tf.reshape_11/Reshape/shape", "op": "Const", "attr": {"dtype": {"type": "DT_INT32"}, "value": {"tensor": {"dtype": "DT_INT32", "tensorShape": {"dim": [{"size": "2"}]}}}}}, {"name": "PartitionedCall/model/tf.compat.v1.gather_91/GatherV2/indices", "op": "Const", "attr": {"value": {"tensor": {"dtype": "DT_INT64", "tensorShape": {}}}, "dtype": {"type": "DT_INT64"}}}, {"name": "PartitionedCall/model/tf.compat.v1.gather_91/GatherV2/axis", "op": "Const", "attr": {"dtype": {"type": "DT_INT32"}, "value": {"tensor": {"dtype": "DT_INT32", "tensorShape": {}}}}}, {"name": "PartitionedCall/model/tf.reshape_12/Reshape/shape", "op": "Const", "attr": {"dtype": {"type": "DT_INT32"}, "value": {"tensor": {"dtype": "DT_INT32", "tensorShape": {"dim": [{"size": "2"}]}}}}}, {"name": "PartitionedCall/model/tf.compat.v1.gather_92/GatherV2/indices", "op": "Const", "attr": {"dtype": {"type": "DT_INT64"}, "value": {"tensor": {"dtype": "DT_INT64", "tensorShape": {"dim": [{"size": "2"}]}}}}}, {"name": "PartitionedCall/model/tf.compat.v1.gather_92/GatherV2/axis", "op": "Const", "attr": {"value": {"tensor": {"dtype": "DT_INT32", "tensorShape": {}}}, "dtype": {"type": "DT_INT32"}}}, {"name": "unknown_337", "op": "Const", "attr": {"dtype": {"type": "DT_INT64"}, "value": {"tensor": {"dtype": "DT_INT64", "tensorShape": {"dim": [{"size": "2"}]}}}}}, {"name": "PartitionedCall/model/tf.concat_98/concat/axis", "op": "Const", "attr": {"value": {"tensor": {"dtype": "DT_INT32", "tensorShape": {}}}, "dtype": {"type": "DT_INT32"}}}, {"name": "PartitionedCall/model/tf.compat.v1.gather_10/GatherV2/indices", "op": "Const", "attr": {"dtype": {"type": "DT_INT32"}, "value": {"tensor": {"dtype": "DT_INT32", "tensorShape": {"dim": [{"size": "1"}]}}}}}, {"name": "PartitionedCall/model/tf.compat.v1.gather_10/GatherV2/axis", "op": "Const", "attr": {"value": {"tensor": {"dtype": "DT_INT32", "tensorShape": {}}}, "dtype": {"type": "DT_INT32"}}}, {"name": "PartitionedCall/model/tf.compat.v1.transpose_10/transpose/perm", "op": "Const", "attr": {"dtype": {"type": "DT_INT32"}, "value": {"tensor": {"dtype": "DT_INT32", "tensorShape": {"dim": [{"size": "2"}]}}}}}, {"name": "unknown_26", "op": "Const", "attr": {"value": {"tensor": {"dtype": "DT_INT64", "tensorShape": {}}}, "dtype": {"type": "DT_INT64"}}}, {"name": "unknown_25", "op": "Const", "attr": {"value": {"tensor": {"dtype": "DT_INT32", "tensorShape": {"dim": [{"size": "2"}, {"size": "2"}]}}}, "dtype": {"type": "DT_INT32"}}}, {"name": "unknown_30", "op": "Const", "attr": {"dtype": {"type": "DT_INT64"}, "value": {"tensor": {"dtype": "DT_INT64", "tensorShape": {}}}}}, {"name": "PartitionedCall/model/tf.compat.v1.gather_11/GatherV2/indices", "op": "Const", "attr": {"value": {"tensor": {"dtype": "DT_INT32", "tensorShape": {"dim": [{"size": "1"}]}}}, "dtype": {"type": "DT_INT32"}}}, {"name": "PartitionedCall/model/tf.compat.v1.gather_11/GatherV2/axis", "op": "Const", "attr": {"value": {"tensor": {"dtype": "DT_INT32", "tensorShape": {}}}, "dtype": {"type": "DT_INT32"}}}, {"name": "PartitionedCall/model/tf.compat.v1.transpose_11/transpose/perm", "op": "Const", "attr": {"dtype": {"type": "DT_INT32"}, "value": {"tensor": {"dtype": "DT_INT32", "tensorShape": {"dim": [{"size": "2"}]}}}}}, {"name": "unknown_24", "op": "Const", "attr": {"value": {"tensor": {"dtype": "DT_INT64", "tensorShape": {}}}, "dtype": {"type": "DT_INT64"}}}, {"name": "unknown_23", "op": "Const", "attr": {"dtype": {"type": "DT_INT32"}, "value": {"tensor": {"dtype": "DT_INT32", "tensorShape": {"dim": [{"size": "2"}, {"size": "2"}]}}}}}, {"name": "unknown_31", "op": "Const", "attr": {"dtype": {"type": "DT_INT64"}, "value": {"tensor": {"dtype": "DT_INT64", "tensorShape": {}}}}}, {"name": "PartitionedCall/model/tf.compat.v1.gather_12/GatherV2/indices", "op": "Const", "attr": {"dtype": {"type": "DT_INT32"}, "value": {"tensor": {"dtype": "DT_INT32", "tensorShape": {"dim": [{"size": "1"}]}}}}}, {"name": "PartitionedCall/model/tf.compat.v1.gather_12/GatherV2/axis", "op": "Const", "attr": {"value": {"tensor": {"dtype": "DT_INT32", "tensorShape": {}}}, "dtype": {"type": "DT_INT32"}}}, {"name": "PartitionedCall/model/tf.compat.v1.transpose_12/transpose/perm", "op": "Const", "attr": {"value": {"tensor": {"dtype": "DT_INT32", "tensorShape": {"dim": [{"size": "2"}]}}}, "dtype": {"type": "DT_INT32"}}}, {"name": "unknown_29", "op": "Const", "attr": {"value": {"tensor": {"dtype": "DT_INT64", "tensorShape": {}}}, "dtype": {"type": "DT_INT64"}}}, {"name": "unknown_28", "op": "Const", "attr": {"dtype": {"type": "DT_INT32"}, "value": {"tensor": {"dtype": "DT_INT32", "tensorShape": {"dim": [{"size": "2"}, {"size": "2"}]}}}}}, {"name": "unknown_35", "op": "Const", "attr": {"value": {"tensor": {"dtype": "DT_INT64", "tensorShape": {}}}, "dtype": {"type": "DT_INT64"}}}, {"name": "PartitionedCall/model/tf.compat.v1.gather_13/GatherV2/indices", "op": "Const", "attr": {"value": {"tensor": {"dtype": "DT_INT32", "tensorShape": {"dim": [{"size": "1"}]}}}, "dtype": {"type": "DT_INT32"}}}, {"name": "PartitionedCall/model/tf.compat.v1.gather_13/GatherV2/axis", "op": "Const", "attr": {"dtype": {"type": "DT_INT32"}, "value": {"tensor": {"dtype": "DT_INT32", "tensorShape": {}}}}}, {"name": "PartitionedCall/model/tf.compat.v1.transpose_13/transpose/perm", "op": "Const", "attr": {"value": {"tensor": {"dtype": "DT_INT32", "tensorShape": {"dim": [{"size": "2"}]}}}, "dtype": {"type": "DT_INT32"}}}, {"name": "unknown_34", "op": "Const", "attr": {"dtype": {"type": "DT_INT64"}, "value": {"tensor": {"dtype": "DT_INT64", "tensorShape": {}}}}}, {"name": "unknown_33", "op": "Const", "attr": {"value": {"tensor": {"dtype": "DT_INT32", "tensorShape": {"dim": [{"size": "2"}, {"size": "2"}]}}}, "dtype": {"type": "DT_INT32"}}}, {"name": "unknown_39", "op": "Const", "attr": {"dtype": {"type": "DT_INT64"}, "value": {"tensor": {"dtype": "DT_INT64", "tensorShape": {}}}}}, {"name": "PartitionedCall/model/tf.compat.v1.gather_14/GatherV2/indices", "op": "Const", "attr": {"dtype": {"type": "DT_INT32"}, "value": {"tensor": {"dtype": "DT_INT32", "tensorShape": {"dim": [{"size": "1"}]}}}}}, {"name": "PartitionedCall/model/tf.compat.v1.gather_14/GatherV2/axis", "op": "Const", "attr": {"value": {"tensor": {"dtype": "DT_INT32", "tensorShape": {}}}, "dtype": {"type": "DT_INT32"}}}, {"name": "PartitionedCall/model/tf.compat.v1.transpose_14/transpose/perm", "op": "Const", "attr": {"dtype": {"type": "DT_INT32"}, "value": {"tensor": {"dtype": "DT_INT32", "tensorShape": {"dim": [{"size": "2"}]}}}}}, {"name": "unknown_38", "op": "Const", "attr": {"value": {"tensor": {"dtype": "DT_INT64", "tensorShape": {}}}, "dtype": {"type": "DT_INT64"}}}, {"name": "unknown_37", "op": "Const", "attr": {"dtype": {"type": "DT_INT32"}, "value": {"tensor": {"dtype": "DT_INT32", "tensorShape": {"dim": [{"size": "2"}, {"size": "2"}]}}}}}, {"name": "unknown_43", "op": "Const", "attr": {"value": {"tensor": {"dtype": "DT_INT64", "tensorShape": {}}}, "dtype": {"type": "DT_INT64"}}}, {"name": "PartitionedCall/model/tf.compat.v1.gather_15/GatherV2/indices", "op": "Const", "attr": {"value": {"tensor": {"dtype": "DT_INT32", "tensorShape": {"dim": [{"size": "1"}]}}}, "dtype": {"type": "DT_INT32"}}}, {"name": "PartitionedCall/model/tf.compat.v1.gather_15/GatherV2/axis", "op": "Const", "attr": {"value": {"tensor": {"dtype": "DT_INT32", "tensorShape": {}}}, "dtype": {"type": "DT_INT32"}}}, {"name": "PartitionedCall/model/tf.compat.v1.transpose_15/transpose/perm", "op": "Const", "attr": {"value": {"tensor": {"dtype": "DT_INT32", "tensorShape": {"dim": [{"size": "2"}]}}}, "dtype": {"type": "DT_INT32"}}}, {"name": "unknown_42", "op": "Const", "attr": {"value": {"tensor": {"dtype": "DT_INT64", "tensorShape": {}}}, "dtype": {"type": "DT_INT64"}}}, {"name": "unknown_41", "op": "Const", "attr": {"dtype": {"type": "DT_INT32"}, "value": {"tensor": {"dtype": "DT_INT32", "tensorShape": {"dim": [{"size": "2"}, {"size": "2"}]}}}}}, {"name": "unknown_47", "op": "Const", "attr": {"dtype": {"type": "DT_INT64"}, "value": {"tensor": {"dtype": "DT_INT64", "tensorShape": {}}}}}, {"name": "PartitionedCall/model/tf.compat.v1.gather_16/GatherV2/indices", "op": "Const", "attr": {"value": {"tensor": {"dtype": "DT_INT32", "tensorShape": {"dim": [{"size": "1"}]}}}, "dtype": {"type": "DT_INT32"}}}, {"name": "PartitionedCall/model/tf.compat.v1.gather_16/GatherV2/axis", "op": "Const", "attr": {"value": {"tensor": {"dtype": "DT_INT32", "tensorShape": {}}}, "dtype": {"type": "DT_INT32"}}}, {"name": "PartitionedCall/model/tf.compat.v1.transpose_16/transpose/perm", "op": "Const", "attr": {"value": {"tensor": {"dtype": "DT_INT32", "tensorShape": {"dim": [{"size": "2"}]}}}, "dtype": {"type": "DT_INT32"}}}, {"name": "unknown_46", "op": "Const", "attr": {"value": {"tensor": {"dtype": "DT_INT64", "tensorShape": {}}}, "dtype": {"type": "DT_INT64"}}}, {"name": "unknown_45", "op": "Const", "attr": {"dtype": {"type": "DT_INT32"}, "value": {"tensor": {"dtype": "DT_INT32", "tensorShape": {"dim": [{"size": "2"}, {"size": "2"}]}}}}}, {"name": "unknown_51", "op": "Const", "attr": {"value": {"tensor": {"dtype": "DT_INT64", "tensorShape": {}}}, "dtype": {"type": "DT_INT64"}}}, {"name": "PartitionedCall/model/tf.compat.v1.gather_17/GatherV2/indices", "op": "Const", "attr": {"value": {"tensor": {"dtype": "DT_INT32", "tensorShape": {"dim": [{"size": "1"}]}}}, "dtype": {"type": "DT_INT32"}}}, {"name": "PartitionedCall/model/tf.compat.v1.gather_17/GatherV2/axis", "op": "Const", "attr": {"value": {"tensor": {"dtype": "DT_INT32", "tensorShape": {}}}, "dtype": {"type": "DT_INT32"}}}, {"name": "PartitionedCall/model/tf.compat.v1.transpose_17/transpose/perm", "op": "Const", "attr": {"value": {"tensor": {"dtype": "DT_INT32", "tensorShape": {"dim": [{"size": "2"}]}}}, "dtype": {"type": "DT_INT32"}}}, {"name": "unknown_50", "op": "Const", "attr": {"value": {"tensor": {"dtype": "DT_INT64", "tensorShape": {}}}, "dtype": {"type": "DT_INT64"}}}, {"name": "unknown_49", "op": "Const", "attr": {"dtype": {"type": "DT_INT32"}, "value": {"tensor": {"dtype": "DT_INT32", "tensorShape": {"dim": [{"size": "2"}, {"size": "2"}]}}}}}, {"name": "unknown_55", "op": "Const", "attr": {"dtype": {"type": "DT_INT64"}, "value": {"tensor": {"dtype": "DT_INT64", "tensorShape": {}}}}}, {"name": "PartitionedCall/model/tf.compat.v1.gather_18/GatherV2/indices", "op": "Const", "attr": {"dtype": {"type": "DT_INT32"}, "value": {"tensor": {"dtype": "DT_INT32", "tensorShape": {"dim": [{"size": "1"}]}}}}}, {"name": "PartitionedCall/model/tf.compat.v1.gather_18/GatherV2/axis", "op": "Const", "attr": {"value": {"tensor": {"dtype": "DT_INT32", "tensorShape": {}}}, "dtype": {"type": "DT_INT32"}}}, {"name": "PartitionedCall/model/tf.compat.v1.transpose_18/transpose/perm", "op": "Const", "attr": {"dtype": {"type": "DT_INT32"}, "value": {"tensor": {"dtype": "DT_INT32", "tensorShape": {"dim": [{"size": "2"}]}}}}}, {"name": "unknown_54", "op": "Const", "attr": {"value": {"tensor": {"dtype": "DT_INT64", "tensorShape": {}}}, "dtype": {"type": "DT_INT64"}}}, {"name": "unknown_53", "op": "Const", "attr": {"dtype": {"type": "DT_INT32"}, "value": {"tensor": {"dtype": "DT_INT32", "tensorShape": {"dim": [{"size": "2"}, {"size": "2"}]}}}}}, {"name": "unknown_59", "op": "Const", "attr": {"dtype": {"type": "DT_INT64"}, "value": {"tensor": {"dtype": "DT_INT64", "tensorShape": {}}}}}, {"name": "PartitionedCall/model/tf.compat.v1.gather_19/GatherV2/indices", "op": "Const", "attr": {"value": {"tensor": {"dtype": "DT_INT32", "tensorShape": {"dim": [{"size": "1"}]}}}, "dtype": {"type": "DT_INT32"}}}, {"name": "PartitionedCall/model/tf.compat.v1.gather_19/GatherV2/axis", "op": "Const", "attr": {"dtype": {"type": "DT_INT32"}, "value": {"tensor": {"dtype": "DT_INT32", "tensorShape": {}}}}}, {"name": "PartitionedCall/model/tf.compat.v1.transpose_19/transpose/perm", "op": "Const", "attr": {"value": {"tensor": {"dtype": "DT_INT32", "tensorShape": {"dim": [{"size": "2"}]}}}, "dtype": {"type": "DT_INT32"}}}, {"name": "unknown_58", "op": "Const", "attr": {"value": {"tensor": {"dtype": "DT_INT64", "tensorShape": {}}}, "dtype": {"type": "DT_INT64"}}}, {"name": "unknown_57", "op": "Const", "attr": {"dtype": {"type": "DT_INT32"}, "value": {"tensor": {"dtype": "DT_INT32", "tensorShape": {"dim": [{"size": "2"}, {"size": "2"}]}}}}}, {"name": "unknown_63", "op": "Const", "attr": {"dtype": {"type": "DT_INT64"}, "value": {"tensor": {"dtype": "DT_INT64", "tensorShape": {}}}}}, {"name": "PartitionedCall/model/tf.compat.v1.gather_20/GatherV2/indices", "op": "Const", "attr": {"value": {"tensor": {"dtype": "DT_INT32", "tensorShape": {"dim": [{"size": "1"}]}}}, "dtype": {"type": "DT_INT32"}}}, {"name": "PartitionedCall/model/tf.compat.v1.gather_20/GatherV2/axis", "op": "Const", "attr": {"value": {"tensor": {"dtype": "DT_INT32", "tensorShape": {}}}, "dtype": {"type": "DT_INT32"}}}, {"name": "PartitionedCall/model/tf.compat.v1.transpose_20/transpose/perm", "op": "Const", "attr": {"value": {"tensor": {"dtype": "DT_INT32", "tensorShape": {"dim": [{"size": "2"}]}}}, "dtype": {"type": "DT_INT32"}}}, {"name": "unknown_62", "op": "Const", "attr": {"value": {"tensor": {"dtype": "DT_INT64", "tensorShape": {}}}, "dtype": {"type": "DT_INT64"}}}, {"name": "unknown_61", "op": "Const", "attr": {"dtype": {"type": "DT_INT32"}, "value": {"tensor": {"dtype": "DT_INT32", "tensorShape": {"dim": [{"size": "2"}, {"size": "2"}]}}}}}, {"name": "unknown_67", "op": "Const", "attr": {"dtype": {"type": "DT_INT64"}, "value": {"tensor": {"dtype": "DT_INT64", "tensorShape": {}}}}}, {"name": "PartitionedCall/model/tf.compat.v1.gather_21/GatherV2/indices", "op": "Const", "attr": {"value": {"tensor": {"dtype": "DT_INT32", "tensorShape": {"dim": [{"size": "1"}]}}}, "dtype": {"type": "DT_INT32"}}}, {"name": "PartitionedCall/model/tf.compat.v1.gather_21/GatherV2/axis", "op": "Const", "attr": {"value": {"tensor": {"dtype": "DT_INT32", "tensorShape": {}}}, "dtype": {"type": "DT_INT32"}}}, {"name": "PartitionedCall/model/tf.compat.v1.transpose_21/transpose/perm", "op": "Const", "attr": {"value": {"tensor": {"dtype": "DT_INT32", "tensorShape": {"dim": [{"size": "2"}]}}}, "dtype": {"type": "DT_INT32"}}}, {"name": "unknown_66", "op": "Const", "attr": {"dtype": {"type": "DT_INT64"}, "value": {"tensor": {"dtype": "DT_INT64", "tensorShape": {}}}}}, {"name": "unknown_65", "op": "Const", "attr": {"dtype": {"type": "DT_INT32"}, "value": {"tensor": {"dtype": "DT_INT32", "tensorShape": {"dim": [{"size": "2"}, {"size": "2"}]}}}}}, {"name": "unknown_71", "op": "Const", "attr": {"dtype": {"type": "DT_INT64"}, "value": {"tensor": {"dtype": "DT_INT64", "tensorShape": {}}}}}, {"name": "PartitionedCall/model/tf.compat.v1.gather_22/GatherV2/indices", "op": "Const", "attr": {"dtype": {"type": "DT_INT32"}, "value": {"tensor": {"dtype": "DT_INT32", "tensorShape": {"dim": [{"size": "1"}]}}}}}, {"name": "PartitionedCall/model/tf.compat.v1.gather_22/GatherV2/axis", "op": "Const", "attr": {"dtype": {"type": "DT_INT32"}, "value": {"tensor": {"dtype": "DT_INT32", "tensorShape": {}}}}}, {"name": "PartitionedCall/model/tf.compat.v1.transpose_22/transpose/perm", "op": "Const", "attr": {"dtype": {"type": "DT_INT32"}, "value": {"tensor": {"dtype": "DT_INT32", "tensorShape": {"dim": [{"size": "2"}]}}}}}, {"name": "unknown_70", "op": "Const", "attr": {"dtype": {"type": "DT_INT64"}, "value": {"tensor": {"dtype": "DT_INT64", "tensorShape": {}}}}}, {"name": "unknown_69", "op": "Const", "attr": {"value": {"tensor": {"dtype": "DT_INT32", "tensorShape": {"dim": [{"size": "2"}, {"size": "2"}]}}}, "dtype": {"type": "DT_INT32"}}}, {"name": "unknown_75", "op": "Const", "attr": {"value": {"tensor": {"dtype": "DT_INT64", "tensorShape": {}}}, "dtype": {"type": "DT_INT64"}}}, {"name": "PartitionedCall/model/tf.compat.v1.gather_23/GatherV2/indices", "op": "Const", "attr": {"dtype": {"type": "DT_INT32"}, "value": {"tensor": {"dtype": "DT_INT32", "tensorShape": {"dim": [{"size": "1"}]}}}}}, {"name": "PartitionedCall/model/tf.compat.v1.gather_23/GatherV2/axis", "op": "Const", "attr": {"value": {"tensor": {"dtype": "DT_INT32", "tensorShape": {}}}, "dtype": {"type": "DT_INT32"}}}, {"name": "PartitionedCall/model/tf.compat.v1.transpose_23/transpose/perm", "op": "Const", "attr": {"value": {"tensor": {"dtype": "DT_INT32", "tensorShape": {"dim": [{"size": "2"}]}}}, "dtype": {"type": "DT_INT32"}}}, {"name": "unknown_74", "op": "Const", "attr": {"value": {"tensor": {"dtype": "DT_INT64", "tensorShape": {}}}, "dtype": {"type": "DT_INT64"}}}, {"name": "unknown_73", "op": "Const", "attr": {"dtype": {"type": "DT_INT32"}, "value": {"tensor": {"dtype": "DT_INT32", "tensorShape": {"dim": [{"size": "2"}, {"size": "2"}]}}}}}, {"name": "unknown_79", "op": "Const", "attr": {"dtype": {"type": "DT_INT64"}, "value": {"tensor": {"dtype": "DT_INT64", "tensorShape": {}}}}}, {"name": "PartitionedCall/model/tf.compat.v1.gather_24/GatherV2/indices", "op": "Const", "attr": {"dtype": {"type": "DT_INT32"}, "value": {"tensor": {"dtype": "DT_INT32", "tensorShape": {"dim": [{"size": "1"}]}}}}}, {"name": "PartitionedCall/model/tf.compat.v1.gather_24/GatherV2/axis", "op": "Const", "attr": {"value": {"tensor": {"dtype": "DT_INT32", "tensorShape": {}}}, "dtype": {"type": "DT_INT32"}}}, {"name": "PartitionedCall/model/tf.compat.v1.transpose_24/transpose/perm", "op": "Const", "attr": {"dtype": {"type": "DT_INT32"}, "value": {"tensor": {"dtype": "DT_INT32", "tensorShape": {"dim": [{"size": "2"}]}}}}}, {"name": "unknown_78", "op": "Const", "attr": {"dtype": {"type": "DT_INT64"}, "value": {"tensor": {"dtype": "DT_INT64", "tensorShape": {}}}}}, {"name": "unknown_77", "op": "Const", "attr": {"value": {"tensor": {"dtype": "DT_INT32", "tensorShape": {"dim": [{"size": "2"}, {"size": "2"}]}}}, "dtype": {"type": "DT_INT32"}}}, {"name": "unknown_83", "op": "Const", "attr": {"value": {"tensor": {"dtype": "DT_INT64", "tensorShape": {}}}, "dtype": {"type": "DT_INT64"}}}, {"name": "PartitionedCall/model/tf.compat.v1.gather_25/GatherV2/indices", "op": "Const", "attr": {"dtype": {"type": "DT_INT32"}, "value": {"tensor": {"dtype": "DT_INT32", "tensorShape": {"dim": [{"size": "1"}]}}}}}, {"name": "PartitionedCall/model/tf.compat.v1.gather_25/GatherV2/axis", "op": "Const", "attr": {"dtype": {"type": "DT_INT32"}, "value": {"tensor": {"dtype": "DT_INT32", "tensorShape": {}}}}}, {"name": "PartitionedCall/model/tf.compat.v1.transpose_25/transpose/perm", "op": "Const", "attr": {"dtype": {"type": "DT_INT32"}, "value": {"tensor": {"dtype": "DT_INT32", "tensorShape": {"dim": [{"size": "2"}]}}}}}, {"name": "unknown_82", "op": "Const", "attr": {"dtype": {"type": "DT_INT64"}, "value": {"tensor": {"dtype": "DT_INT64", "tensorShape": {}}}}}, {"name": "unknown_81", "op": "Const", "attr": {"dtype": {"type": "DT_INT32"}, "value": {"tensor": {"dtype": "DT_INT32", "tensorShape": {"dim": [{"size": "2"}, {"size": "2"}]}}}}}, {"name": "unknown_87", "op": "Const", "attr": {"dtype": {"type": "DT_INT64"}, "value": {"tensor": {"dtype": "DT_INT64", "tensorShape": {}}}}}, {"name": "PartitionedCall/model/tf.compat.v1.gather_26/GatherV2/indices", "op": "Const", "attr": {"value": {"tensor": {"dtype": "DT_INT32", "tensorShape": {"dim": [{"size": "1"}]}}}, "dtype": {"type": "DT_INT32"}}}, {"name": "PartitionedCall/model/tf.compat.v1.gather_26/GatherV2/axis", "op": "Const", "attr": {"value": {"tensor": {"dtype": "DT_INT32", "tensorShape": {}}}, "dtype": {"type": "DT_INT32"}}}, {"name": "PartitionedCall/model/tf.compat.v1.transpose_26/transpose/perm", "op": "Const", "attr": {"value": {"tensor": {"dtype": "DT_INT32", "tensorShape": {"dim": [{"size": "2"}]}}}, "dtype": {"type": "DT_INT32"}}}, {"name": "unknown_86", "op": "Const", "attr": {"value": {"tensor": {"dtype": "DT_INT64", "tensorShape": {}}}, "dtype": {"type": "DT_INT64"}}}, {"name": "unknown_85", "op": "Const", "attr": {"dtype": {"type": "DT_INT32"}, "value": {"tensor": {"dtype": "DT_INT32", "tensorShape": {"dim": [{"size": "2"}, {"size": "2"}]}}}}}, {"name": "unknown_91", "op": "Const", "attr": {"dtype": {"type": "DT_INT64"}, "value": {"tensor": {"dtype": "DT_INT64", "tensorShape": {}}}}}, {"name": "PartitionedCall/model/tf.compat.v1.gather_27/GatherV2/indices", "op": "Const", "attr": {"value": {"tensor": {"dtype": "DT_INT32", "tensorShape": {"dim": [{"size": "1"}]}}}, "dtype": {"type": "DT_INT32"}}}, {"name": "PartitionedCall/model/tf.compat.v1.gather_27/GatherV2/axis", "op": "Const", "attr": {"dtype": {"type": "DT_INT32"}, "value": {"tensor": {"dtype": "DT_INT32", "tensorShape": {}}}}}, {"name": "PartitionedCall/model/tf.compat.v1.transpose_27/transpose/perm", "op": "Const", "attr": {"value": {"tensor": {"dtype": "DT_INT32", "tensorShape": {"dim": [{"size": "2"}]}}}, "dtype": {"type": "DT_INT32"}}}, {"name": "unknown_90", "op": "Const", "attr": {"dtype": {"type": "DT_INT64"}, "value": {"tensor": {"dtype": "DT_INT64", "tensorShape": {}}}}}, {"name": "unknown_89", "op": "Const", "attr": {"dtype": {"type": "DT_INT32"}, "value": {"tensor": {"dtype": "DT_INT32", "tensorShape": {"dim": [{"size": "2"}, {"size": "2"}]}}}}}, {"name": "unknown_95", "op": "Const", "attr": {"dtype": {"type": "DT_INT64"}, "value": {"tensor": {"dtype": "DT_INT64", "tensorShape": {}}}}}, {"name": "PartitionedCall/model/tf.compat.v1.gather_28/GatherV2/indices", "op": "Const", "attr": {"value": {"tensor": {"dtype": "DT_INT32", "tensorShape": {"dim": [{"size": "1"}]}}}, "dtype": {"type": "DT_INT32"}}}, {"name": "PartitionedCall/model/tf.compat.v1.gather_28/GatherV2/axis", "op": "Const", "attr": {"value": {"tensor": {"dtype": "DT_INT32", "tensorShape": {}}}, "dtype": {"type": "DT_INT32"}}}, {"name": "PartitionedCall/model/tf.compat.v1.transpose_28/transpose/perm", "op": "Const", "attr": {"dtype": {"type": "DT_INT32"}, "value": {"tensor": {"dtype": "DT_INT32", "tensorShape": {"dim": [{"size": "2"}]}}}}}, {"name": "unknown_94", "op": "Const", "attr": {"value": {"tensor": {"dtype": "DT_INT64", "tensorShape": {}}}, "dtype": {"type": "DT_INT64"}}}, {"name": "unknown_93", "op": "Const", "attr": {"value": {"tensor": {"dtype": "DT_INT32", "tensorShape": {"dim": [{"size": "2"}, {"size": "2"}]}}}, "dtype": {"type": "DT_INT32"}}}, {"name": "unknown_99", "op": "Const", "attr": {"value": {"tensor": {"dtype": "DT_INT64", "tensorShape": {}}}, "dtype": {"type": "DT_INT64"}}}, {"name": "PartitionedCall/model/tf.compat.v1.gather_29/GatherV2/indices", "op": "Const", "attr": {"value": {"tensor": {"dtype": "DT_INT32", "tensorShape": {"dim": [{"size": "1"}]}}}, "dtype": {"type": "DT_INT32"}}}, {"name": "PartitionedCall/model/tf.compat.v1.gather_29/GatherV2/axis", "op": "Const", "attr": {"value": {"tensor": {"dtype": "DT_INT32", "tensorShape": {}}}, "dtype": {"type": "DT_INT32"}}}, {"name": "PartitionedCall/model/tf.compat.v1.transpose_29/transpose/perm", "op": "Const", "attr": {"dtype": {"type": "DT_INT32"}, "value": {"tensor": {"dtype": "DT_INT32", "tensorShape": {"dim": [{"size": "2"}]}}}}}, {"name": "unknown_98", "op": "Const", "attr": {"dtype": {"type": "DT_INT64"}, "value": {"tensor": {"dtype": "DT_INT64", "tensorShape": {}}}}}, {"name": "unknown_97", "op": "Const", "attr": {"value": {"tensor": {"dtype": "DT_INT32", "tensorShape": {"dim": [{"size": "2"}, {"size": "2"}]}}}, "dtype": {"type": "DT_INT32"}}}, {"name": "unknown_103", "op": "Const", "attr": {"dtype": {"type": "DT_INT64"}, "value": {"tensor": {"dtype": "DT_INT64", "tensorShape": {}}}}}, {"name": "PartitionedCall/model/tf.compat.v1.gather_30/GatherV2/indices", "op": "Const", "attr": {"value": {"tensor": {"dtype": "DT_INT32", "tensorShape": {"dim": [{"size": "1"}]}}}, "dtype": {"type": "DT_INT32"}}}, {"name": "PartitionedCall/model/tf.compat.v1.gather_30/GatherV2/axis", "op": "Const", "attr": {"value": {"tensor": {"dtype": "DT_INT32", "tensorShape": {}}}, "dtype": {"type": "DT_INT32"}}}, {"name": "PartitionedCall/model/tf.compat.v1.transpose_30/transpose/perm", "op": "Const", "attr": {"value": {"tensor": {"dtype": "DT_INT32", "tensorShape": {"dim": [{"size": "2"}]}}}, "dtype": {"type": "DT_INT32"}}}, {"name": "unknown_102", "op": "Const", "attr": {"value": {"tensor": {"dtype": "DT_INT64", "tensorShape": {}}}, "dtype": {"type": "DT_INT64"}}}, {"name": "unknown_101", "op": "Const", "attr": {"value": {"tensor": {"dtype": "DT_INT32", "tensorShape": {"dim": [{"size": "2"}, {"size": "2"}]}}}, "dtype": {"type": "DT_INT32"}}}, {"name": "unknown_107", "op": "Const", "attr": {"dtype": {"type": "DT_INT64"}, "value": {"tensor": {"dtype": "DT_INT64", "tensorShape": {}}}}}, {"name": "PartitionedCall/model/tf.compat.v1.gather_31/GatherV2/indices", "op": "Const", "attr": {"dtype": {"type": "DT_INT32"}, "value": {"tensor": {"dtype": "DT_INT32", "tensorShape": {"dim": [{"size": "1"}]}}}}}, {"name": "PartitionedCall/model/tf.compat.v1.gather_31/GatherV2/axis", "op": "Const", "attr": {"value": {"tensor": {"dtype": "DT_INT32", "tensorShape": {}}}, "dtype": {"type": "DT_INT32"}}}, {"name": "PartitionedCall/model/tf.compat.v1.transpose_31/transpose/perm", "op": "Const", "attr": {"value": {"tensor": {"dtype": "DT_INT32", "tensorShape": {"dim": [{"size": "2"}]}}}, "dtype": {"type": "DT_INT32"}}}, {"name": "unknown_106", "op": "Const", "attr": {"value": {"tensor": {"dtype": "DT_INT64", "tensorShape": {}}}, "dtype": {"type": "DT_INT64"}}}, {"name": "unknown_105", "op": "Const", "attr": {"value": {"tensor": {"dtype": "DT_INT32", "tensorShape": {"dim": [{"size": "2"}, {"size": "2"}]}}}, "dtype": {"type": "DT_INT32"}}}, {"name": "unknown_111", "op": "Const", "attr": {"dtype": {"type": "DT_INT64"}, "value": {"tensor": {"dtype": "DT_INT64", "tensorShape": {}}}}}, {"name": "PartitionedCall/model/tf.compat.v1.gather_32/GatherV2/indices", "op": "Const", "attr": {"dtype": {"type": "DT_INT32"}, "value": {"tensor": {"dtype": "DT_INT32", "tensorShape": {"dim": [{"size": "1"}]}}}}}, {"name": "PartitionedCall/model/tf.compat.v1.gather_32/GatherV2/axis", "op": "Const", "attr": {"value": {"tensor": {"dtype": "DT_INT32", "tensorShape": {}}}, "dtype": {"type": "DT_INT32"}}}, {"name": "PartitionedCall/model/tf.compat.v1.transpose_32/transpose/perm", "op": "Const", "attr": {"value": {"tensor": {"dtype": "DT_INT32", "tensorShape": {"dim": [{"size": "2"}]}}}, "dtype": {"type": "DT_INT32"}}}, {"name": "unknown_110", "op": "Const", "attr": {"dtype": {"type": "DT_INT64"}, "value": {"tensor": {"dtype": "DT_INT64", "tensorShape": {}}}}}, {"name": "unknown_109", "op": "Const", "attr": {"value": {"tensor": {"dtype": "DT_INT32", "tensorShape": {"dim": [{"size": "2"}, {"size": "2"}]}}}, "dtype": {"type": "DT_INT32"}}}, {"name": "unknown_115", "op": "Const", "attr": {"dtype": {"type": "DT_INT64"}, "value": {"tensor": {"dtype": "DT_INT64", "tensorShape": {}}}}}, {"name": "PartitionedCall/model/tf.compat.v1.gather_33/GatherV2/indices", "op": "Const", "attr": {"dtype": {"type": "DT_INT32"}, "value": {"tensor": {"dtype": "DT_INT32", "tensorShape": {"dim": [{"size": "1"}]}}}}}, {"name": "PartitionedCall/model/tf.compat.v1.gather_33/GatherV2/axis", "op": "Const", "attr": {"value": {"tensor": {"dtype": "DT_INT32", "tensorShape": {}}}, "dtype": {"type": "DT_INT32"}}}, {"name": "PartitionedCall/model/tf.compat.v1.transpose_33/transpose/perm", "op": "Const", "attr": {"value": {"tensor": {"dtype": "DT_INT32", "tensorShape": {"dim": [{"size": "2"}]}}}, "dtype": {"type": "DT_INT32"}}}, {"name": "unknown_114", "op": "Const", "attr": {"dtype": {"type": "DT_INT64"}, "value": {"tensor": {"dtype": "DT_INT64", "tensorShape": {}}}}}, {"name": "unknown_113", "op": "Const", "attr": {"dtype": {"type": "DT_INT32"}, "value": {"tensor": {"dtype": "DT_INT32", "tensorShape": {"dim": [{"size": "2"}, {"size": "2"}]}}}}}, {"name": "unknown_119", "op": "Const", "attr": {"dtype": {"type": "DT_INT64"}, "value": {"tensor": {"dtype": "DT_INT64", "tensorShape": {}}}}}, {"name": "PartitionedCall/model/tf.compat.v1.gather_34/GatherV2/indices", "op": "Const", "attr": {"dtype": {"type": "DT_INT32"}, "value": {"tensor": {"dtype": "DT_INT32", "tensorShape": {"dim": [{"size": "1"}]}}}}}, {"name": "PartitionedCall/model/tf.compat.v1.gather_34/GatherV2/axis", "op": "Const", "attr": {"dtype": {"type": "DT_INT32"}, "value": {"tensor": {"dtype": "DT_INT32", "tensorShape": {}}}}}, {"name": "PartitionedCall/model/tf.compat.v1.transpose_34/transpose/perm", "op": "Const", "attr": {"value": {"tensor": {"dtype": "DT_INT32", "tensorShape": {"dim": [{"size": "2"}]}}}, "dtype": {"type": "DT_INT32"}}}, {"name": "unknown_118", "op": "Const", "attr": {"dtype": {"type": "DT_INT64"}, "value": {"tensor": {"dtype": "DT_INT64", "tensorShape": {}}}}}, {"name": "unknown_117", "op": "Const", "attr": {"value": {"tensor": {"dtype": "DT_INT32", "tensorShape": {"dim": [{"size": "2"}, {"size": "2"}]}}}, "dtype": {"type": "DT_INT32"}}}, {"name": "unknown_123", "op": "Const", "attr": {"value": {"tensor": {"dtype": "DT_INT64", "tensorShape": {}}}, "dtype": {"type": "DT_INT64"}}}, {"name": "PartitionedCall/model/tf.compat.v1.gather_35/GatherV2/indices", "op": "Const", "attr": {"dtype": {"type": "DT_INT32"}, "value": {"tensor": {"dtype": "DT_INT32", "tensorShape": {"dim": [{"size": "1"}]}}}}}, {"name": "PartitionedCall/model/tf.compat.v1.gather_35/GatherV2/axis", "op": "Const", "attr": {"value": {"tensor": {"dtype": "DT_INT32", "tensorShape": {}}}, "dtype": {"type": "DT_INT32"}}}, {"name": "PartitionedCall/model/tf.compat.v1.transpose_35/transpose/perm", "op": "Const", "attr": {"dtype": {"type": "DT_INT32"}, "value": {"tensor": {"dtype": "DT_INT32", "tensorShape": {"dim": [{"size": "2"}]}}}}}, {"name": "unknown_122", "op": "Const", "attr": {"dtype": {"type": "DT_INT64"}, "value": {"tensor": {"dtype": "DT_INT64", "tensorShape": {}}}}}, {"name": "unknown_121", "op": "Const", "attr": {"dtype": {"type": "DT_INT32"}, "value": {"tensor": {"dtype": "DT_INT32", "tensorShape": {"dim": [{"size": "2"}, {"size": "2"}]}}}}}, {"name": "unknown_127", "op": "Const", "attr": {"dtype": {"type": "DT_INT64"}, "value": {"tensor": {"dtype": "DT_INT64", "tensorShape": {}}}}}, {"name": "PartitionedCall/model/tf.compat.v1.gather_36/GatherV2/indices", "op": "Const", "attr": {"dtype": {"type": "DT_INT32"}, "value": {"tensor": {"dtype": "DT_INT32", "tensorShape": {"dim": [{"size": "1"}]}}}}}, {"name": "PartitionedCall/model/tf.compat.v1.gather_36/GatherV2/axis", "op": "Const", "attr": {"dtype": {"type": "DT_INT32"}, "value": {"tensor": {"dtype": "DT_INT32", "tensorShape": {}}}}}, {"name": "PartitionedCall/model/tf.compat.v1.transpose_36/transpose/perm", "op": "Const", "attr": {"value": {"tensor": {"dtype": "DT_INT32", "tensorShape": {"dim": [{"size": "2"}]}}}, "dtype": {"type": "DT_INT32"}}}, {"name": "unknown_126", "op": "Const", "attr": {"dtype": {"type": "DT_INT64"}, "value": {"tensor": {"dtype": "DT_INT64", "tensorShape": {}}}}}, {"name": "unknown_125", "op": "Const", "attr": {"value": {"tensor": {"dtype": "DT_INT32", "tensorShape": {"dim": [{"size": "2"}, {"size": "2"}]}}}, "dtype": {"type": "DT_INT32"}}}, {"name": "unknown_131", "op": "Const", "attr": {"dtype": {"type": "DT_INT64"}, "value": {"tensor": {"dtype": "DT_INT64", "tensorShape": {}}}}}, {"name": "PartitionedCall/model/tf.compat.v1.gather_37/GatherV2/indices", "op": "Const", "attr": {"value": {"tensor": {"dtype": "DT_INT32", "tensorShape": {"dim": [{"size": "1"}]}}}, "dtype": {"type": "DT_INT32"}}}, {"name": "PartitionedCall/model/tf.compat.v1.gather_37/GatherV2/axis", "op": "Const", "attr": {"value": {"tensor": {"dtype": "DT_INT32", "tensorShape": {}}}, "dtype": {"type": "DT_INT32"}}}, {"name": "PartitionedCall/model/tf.compat.v1.transpose_37/transpose/perm", "op": "Const", "attr": {"value": {"tensor": {"dtype": "DT_INT32", "tensorShape": {"dim": [{"size": "2"}]}}}, "dtype": {"type": "DT_INT32"}}}, {"name": "unknown_130", "op": "Const", "attr": {"dtype": {"type": "DT_INT64"}, "value": {"tensor": {"dtype": "DT_INT64", "tensorShape": {}}}}}, {"name": "unknown_129", "op": "Const", "attr": {"dtype": {"type": "DT_INT32"}, "value": {"tensor": {"dtype": "DT_INT32", "tensorShape": {"dim": [{"size": "2"}, {"size": "2"}]}}}}}, {"name": "unknown_135", "op": "Const", "attr": {"dtype": {"type": "DT_INT64"}, "value": {"tensor": {"dtype": "DT_INT64", "tensorShape": {}}}}}, {"name": "PartitionedCall/model/tf.compat.v1.gather_38/GatherV2/indices", "op": "Const", "attr": {"value": {"tensor": {"dtype": "DT_INT32", "tensorShape": {"dim": [{"size": "1"}]}}}, "dtype": {"type": "DT_INT32"}}}, {"name": "PartitionedCall/model/tf.compat.v1.gather_38/GatherV2/axis", "op": "Const", "attr": {"dtype": {"type": "DT_INT32"}, "value": {"tensor": {"dtype": "DT_INT32", "tensorShape": {}}}}}, {"name": "PartitionedCall/model/tf.compat.v1.transpose_38/transpose/perm", "op": "Const", "attr": {"dtype": {"type": "DT_INT32"}, "value": {"tensor": {"dtype": "DT_INT32", "tensorShape": {"dim": [{"size": "2"}]}}}}}, {"name": "unknown_134", "op": "Const", "attr": {"dtype": {"type": "DT_INT64"}, "value": {"tensor": {"dtype": "DT_INT64", "tensorShape": {}}}}}, {"name": "unknown_133", "op": "Const", "attr": {"value": {"tensor": {"dtype": "DT_INT32", "tensorShape": {"dim": [{"size": "2"}, {"size": "2"}]}}}, "dtype": {"type": "DT_INT32"}}}, {"name": "unknown_139", "op": "Const", "attr": {"value": {"tensor": {"dtype": "DT_INT64", "tensorShape": {}}}, "dtype": {"type": "DT_INT64"}}}, {"name": "PartitionedCall/model/tf.compat.v1.gather_39/GatherV2/indices", "op": "Const", "attr": {"dtype": {"type": "DT_INT32"}, "value": {"tensor": {"dtype": "DT_INT32", "tensorShape": {"dim": [{"size": "1"}]}}}}}, {"name": "PartitionedCall/model/tf.compat.v1.gather_39/GatherV2/axis", "op": "Const", "attr": {"dtype": {"type": "DT_INT32"}, "value": {"tensor": {"dtype": "DT_INT32", "tensorShape": {}}}}}, {"name": "PartitionedCall/model/tf.compat.v1.transpose_39/transpose/perm", "op": "Const", "attr": {"dtype": {"type": "DT_INT32"}, "value": {"tensor": {"dtype": "DT_INT32", "tensorShape": {"dim": [{"size": "2"}]}}}}}, {"name": "unknown_138", "op": "Const", "attr": {"dtype": {"type": "DT_INT64"}, "value": {"tensor": {"dtype": "DT_INT64", "tensorShape": {}}}}}, {"name": "unknown_137", "op": "Const", "attr": {"dtype": {"type": "DT_INT32"}, "value": {"tensor": {"dtype": "DT_INT32", "tensorShape": {"dim": [{"size": "2"}, {"size": "2"}]}}}}}, {"name": "unknown_143", "op": "Const", "attr": {"value": {"tensor": {"dtype": "DT_INT64", "tensorShape": {}}}, "dtype": {"type": "DT_INT64"}}}, {"name": "PartitionedCall/model/tf.compat.v1.gather_40/GatherV2/indices", "op": "Const", "attr": {"value": {"tensor": {"dtype": "DT_INT32", "tensorShape": {"dim": [{"size": "1"}]}}}, "dtype": {"type": "DT_INT32"}}}, {"name": "PartitionedCall/model/tf.compat.v1.gather_40/GatherV2/axis", "op": "Const", "attr": {"value": {"tensor": {"dtype": "DT_INT32", "tensorShape": {}}}, "dtype": {"type": "DT_INT32"}}}, {"name": "PartitionedCall/model/tf.compat.v1.transpose_40/transpose/perm", "op": "Const", "attr": {"dtype": {"type": "DT_INT32"}, "value": {"tensor": {"dtype": "DT_INT32", "tensorShape": {"dim": [{"size": "2"}]}}}}}, {"name": "unknown_142", "op": "Const", "attr": {"value": {"tensor": {"dtype": "DT_INT64", "tensorShape": {}}}, "dtype": {"type": "DT_INT64"}}}, {"name": "unknown_141", "op": "Const", "attr": {"dtype": {"type": "DT_INT32"}, "value": {"tensor": {"dtype": "DT_INT32", "tensorShape": {"dim": [{"size": "2"}, {"size": "2"}]}}}}}, {"name": "unknown_147", "op": "Const", "attr": {"dtype": {"type": "DT_INT64"}, "value": {"tensor": {"dtype": "DT_INT64", "tensorShape": {}}}}}, {"name": "PartitionedCall/model/tf.compat.v1.gather_41/GatherV2/indices", "op": "Const", "attr": {"value": {"tensor": {"dtype": "DT_INT32", "tensorShape": {"dim": [{"size": "1"}]}}}, "dtype": {"type": "DT_INT32"}}}, {"name": "PartitionedCall/model/tf.compat.v1.gather_41/GatherV2/axis", "op": "Const", "attr": {"dtype": {"type": "DT_INT32"}, "value": {"tensor": {"dtype": "DT_INT32", "tensorShape": {}}}}}, {"name": "PartitionedCall/model/tf.compat.v1.transpose_41/transpose/perm", "op": "Const", "attr": {"value": {"tensor": {"dtype": "DT_INT32", "tensorShape": {"dim": [{"size": "2"}]}}}, "dtype": {"type": "DT_INT32"}}}, {"name": "unknown_146", "op": "Const", "attr": {"value": {"tensor": {"dtype": "DT_INT64", "tensorShape": {}}}, "dtype": {"type": "DT_INT64"}}}, {"name": "unknown_145", "op": "Const", "attr": {"dtype": {"type": "DT_INT32"}, "value": {"tensor": {"dtype": "DT_INT32", "tensorShape": {"dim": [{"size": "2"}, {"size": "2"}]}}}}}, {"name": "unknown_151", "op": "Const", "attr": {"value": {"tensor": {"dtype": "DT_INT64", "tensorShape": {}}}, "dtype": {"type": "DT_INT64"}}}, {"name": "PartitionedCall/model/tf.compat.v1.gather_42/GatherV2/indices", "op": "Const", "attr": {"dtype": {"type": "DT_INT32"}, "value": {"tensor": {"dtype": "DT_INT32", "tensorShape": {"dim": [{"size": "1"}]}}}}}, {"name": "PartitionedCall/model/tf.compat.v1.gather_42/GatherV2/axis", "op": "Const", "attr": {"dtype": {"type": "DT_INT32"}, "value": {"tensor": {"dtype": "DT_INT32", "tensorShape": {}}}}}, {"name": "PartitionedCall/model/tf.compat.v1.transpose_42/transpose/perm", "op": "Const", "attr": {"value": {"tensor": {"dtype": "DT_INT32", "tensorShape": {"dim": [{"size": "2"}]}}}, "dtype": {"type": "DT_INT32"}}}, {"name": "unknown_150", "op": "Const", "attr": {"dtype": {"type": "DT_INT64"}, "value": {"tensor": {"dtype": "DT_INT64", "tensorShape": {}}}}}, {"name": "unknown_149", "op": "Const", "attr": {"value": {"tensor": {"dtype": "DT_INT32", "tensorShape": {"dim": [{"size": "2"}, {"size": "2"}]}}}, "dtype": {"type": "DT_INT32"}}}, {"name": "unknown_155", "op": "Const", "attr": {"dtype": {"type": "DT_INT64"}, "value": {"tensor": {"dtype": "DT_INT64", "tensorShape": {}}}}}, {"name": "PartitionedCall/model/tf.compat.v1.gather_43/GatherV2/indices", "op": "Const", "attr": {"value": {"tensor": {"dtype": "DT_INT32", "tensorShape": {"dim": [{"size": "1"}]}}}, "dtype": {"type": "DT_INT32"}}}, {"name": "PartitionedCall/model/tf.compat.v1.gather_43/GatherV2/axis", "op": "Const", "attr": {"value": {"tensor": {"dtype": "DT_INT32", "tensorShape": {}}}, "dtype": {"type": "DT_INT32"}}}, {"name": "PartitionedCall/model/tf.compat.v1.transpose_43/transpose/perm", "op": "Const", "attr": {"dtype": {"type": "DT_INT32"}, "value": {"tensor": {"dtype": "DT_INT32", "tensorShape": {"dim": [{"size": "2"}]}}}}}, {"name": "unknown_154", "op": "Const", "attr": {"dtype": {"type": "DT_INT64"}, "value": {"tensor": {"dtype": "DT_INT64", "tensorShape": {}}}}}, {"name": "unknown_153", "op": "Const", "attr": {"value": {"tensor": {"dtype": "DT_INT32", "tensorShape": {"dim": [{"size": "2"}, {"size": "2"}]}}}, "dtype": {"type": "DT_INT32"}}}, {"name": "unknown_159", "op": "Const", "attr": {"dtype": {"type": "DT_INT64"}, "value": {"tensor": {"dtype": "DT_INT64", "tensorShape": {}}}}}, {"name": "PartitionedCall/model/tf.compat.v1.gather_44/GatherV2/indices", "op": "Const", "attr": {"dtype": {"type": "DT_INT32"}, "value": {"tensor": {"dtype": "DT_INT32", "tensorShape": {"dim": [{"size": "1"}]}}}}}, {"name": "PartitionedCall/model/tf.compat.v1.gather_44/GatherV2/axis", "op": "Const", "attr": {"dtype": {"type": "DT_INT32"}, "value": {"tensor": {"dtype": "DT_INT32", "tensorShape": {}}}}}, {"name": "PartitionedCall/model/tf.compat.v1.transpose_44/transpose/perm", "op": "Const", "attr": {"value": {"tensor": {"dtype": "DT_INT32", "tensorShape": {"dim": [{"size": "2"}]}}}, "dtype": {"type": "DT_INT32"}}}, {"name": "unknown_158", "op": "Const", "attr": {"dtype": {"type": "DT_INT64"}, "value": {"tensor": {"dtype": "DT_INT64", "tensorShape": {}}}}}, {"name": "unknown_157", "op": "Const", "attr": {"value": {"tensor": {"dtype": "DT_INT32", "tensorShape": {"dim": [{"size": "2"}, {"size": "2"}]}}}, "dtype": {"type": "DT_INT32"}}}, {"name": "unknown_163", "op": "Const", "attr": {"value": {"tensor": {"dtype": "DT_INT64", "tensorShape": {}}}, "dtype": {"type": "DT_INT64"}}}, {"name": "PartitionedCall/model/tf.compat.v1.gather_45/GatherV2/indices", "op": "Const", "attr": {"dtype": {"type": "DT_INT32"}, "value": {"tensor": {"dtype": "DT_INT32", "tensorShape": {"dim": [{"size": "1"}]}}}}}, {"name": "PartitionedCall/model/tf.compat.v1.gather_45/GatherV2/axis", "op": "Const", "attr": {"value": {"tensor": {"dtype": "DT_INT32", "tensorShape": {}}}, "dtype": {"type": "DT_INT32"}}}, {"name": "PartitionedCall/model/tf.compat.v1.transpose_45/transpose/perm", "op": "Const", "attr": {"value": {"tensor": {"dtype": "DT_INT32", "tensorShape": {"dim": [{"size": "2"}]}}}, "dtype": {"type": "DT_INT32"}}}, {"name": "unknown_162", "op": "Const", "attr": {"dtype": {"type": "DT_INT64"}, "value": {"tensor": {"dtype": "DT_INT64", "tensorShape": {}}}}}, {"name": "unknown_161", "op": "Const", "attr": {"value": {"tensor": {"dtype": "DT_INT32", "tensorShape": {"dim": [{"size": "2"}, {"size": "2"}]}}}, "dtype": {"type": "DT_INT32"}}}, {"name": "unknown_167", "op": "Const", "attr": {"value": {"tensor": {"dtype": "DT_INT64", "tensorShape": {}}}, "dtype": {"type": "DT_INT64"}}}, {"name": "PartitionedCall/model/tf.compat.v1.gather_46/GatherV2/indices", "op": "Const", "attr": {"dtype": {"type": "DT_INT32"}, "value": {"tensor": {"dtype": "DT_INT32", "tensorShape": {"dim": [{"size": "1"}]}}}}}, {"name": "PartitionedCall/model/tf.compat.v1.gather_46/GatherV2/axis", "op": "Const", "attr": {"dtype": {"type": "DT_INT32"}, "value": {"tensor": {"dtype": "DT_INT32", "tensorShape": {}}}}}, {"name": "PartitionedCall/model/tf.compat.v1.transpose_46/transpose/perm", "op": "Const", "attr": {"dtype": {"type": "DT_INT32"}, "value": {"tensor": {"dtype": "DT_INT32", "tensorShape": {"dim": [{"size": "2"}]}}}}}, {"name": "unknown_166", "op": "Const", "attr": {"value": {"tensor": {"dtype": "DT_INT64", "tensorShape": {}}}, "dtype": {"type": "DT_INT64"}}}, {"name": "unknown_165", "op": "Const", "attr": {"dtype": {"type": "DT_INT32"}, "value": {"tensor": {"dtype": "DT_INT32", "tensorShape": {"dim": [{"size": "2"}, {"size": "2"}]}}}}}, {"name": "unknown_171", "op": "Const", "attr": {"dtype": {"type": "DT_INT64"}, "value": {"tensor": {"dtype": "DT_INT64", "tensorShape": {}}}}}, {"name": "PartitionedCall/model/tf.compat.v1.gather_47/GatherV2/indices", "op": "Const", "attr": {"dtype": {"type": "DT_INT32"}, "value": {"tensor": {"dtype": "DT_INT32", "tensorShape": {"dim": [{"size": "1"}]}}}}}, {"name": "PartitionedCall/model/tf.compat.v1.gather_47/GatherV2/axis", "op": "Const", "attr": {"value": {"tensor": {"dtype": "DT_INT32", "tensorShape": {}}}, "dtype": {"type": "DT_INT32"}}}, {"name": "PartitionedCall/model/tf.compat.v1.transpose_47/transpose/perm", "op": "Const", "attr": {"dtype": {"type": "DT_INT32"}, "value": {"tensor": {"dtype": "DT_INT32", "tensorShape": {"dim": [{"size": "2"}]}}}}}, {"name": "unknown_170", "op": "Const", "attr": {"value": {"tensor": {"dtype": "DT_INT64", "tensorShape": {}}}, "dtype": {"type": "DT_INT64"}}}, {"name": "unknown_169", "op": "Const", "attr": {"value": {"tensor": {"dtype": "DT_INT32", "tensorShape": {"dim": [{"size": "2"}, {"size": "2"}]}}}, "dtype": {"type": "DT_INT32"}}}, {"name": "unknown_175", "op": "Const", "attr": {"dtype": {"type": "DT_INT64"}, "value": {"tensor": {"dtype": "DT_INT64", "tensorShape": {}}}}}, {"name": "PartitionedCall/model/tf.compat.v1.gather_48/GatherV2/indices", "op": "Const", "attr": {"dtype": {"type": "DT_INT32"}, "value": {"tensor": {"dtype": "DT_INT32", "tensorShape": {"dim": [{"size": "1"}]}}}}}, {"name": "PartitionedCall/model/tf.compat.v1.gather_48/GatherV2/axis", "op": "Const", "attr": {"value": {"tensor": {"dtype": "DT_INT32", "tensorShape": {}}}, "dtype": {"type": "DT_INT32"}}}, {"name": "PartitionedCall/model/tf.compat.v1.transpose_48/transpose/perm", "op": "Const", "attr": {"value": {"tensor": {"dtype": "DT_INT32", "tensorShape": {"dim": [{"size": "2"}]}}}, "dtype": {"type": "DT_INT32"}}}, {"name": "unknown_174", "op": "Const", "attr": {"dtype": {"type": "DT_INT64"}, "value": {"tensor": {"dtype": "DT_INT64", "tensorShape": {}}}}}, {"name": "unknown_173", "op": "Const", "attr": {"value": {"tensor": {"dtype": "DT_INT32", "tensorShape": {"dim": [{"size": "2"}, {"size": "2"}]}}}, "dtype": {"type": "DT_INT32"}}}, {"name": "unknown_179", "op": "Const", "attr": {"value": {"tensor": {"dtype": "DT_INT64", "tensorShape": {}}}, "dtype": {"type": "DT_INT64"}}}, {"name": "PartitionedCall/model/tf.compat.v1.gather_49/GatherV2/indices", "op": "Const", "attr": {"value": {"tensor": {"dtype": "DT_INT32", "tensorShape": {"dim": [{"size": "1"}]}}}, "dtype": {"type": "DT_INT32"}}}, {"name": "PartitionedCall/model/tf.compat.v1.gather_49/GatherV2/axis", "op": "Const", "attr": {"dtype": {"type": "DT_INT32"}, "value": {"tensor": {"dtype": "DT_INT32", "tensorShape": {}}}}}, {"name": "PartitionedCall/model/tf.compat.v1.transpose_49/transpose/perm", "op": "Const", "attr": {"dtype": {"type": "DT_INT32"}, "value": {"tensor": {"dtype": "DT_INT32", "tensorShape": {"dim": [{"size": "2"}]}}}}}, {"name": "unknown_178", "op": "Const", "attr": {"value": {"tensor": {"dtype": "DT_INT64", "tensorShape": {}}}, "dtype": {"type": "DT_INT64"}}}, {"name": "unknown_177", "op": "Const", "attr": {"dtype": {"type": "DT_INT32"}, "value": {"tensor": {"dtype": "DT_INT32", "tensorShape": {"dim": [{"size": "2"}, {"size": "2"}]}}}}}, {"name": "unknown_183", "op": "Const", "attr": {"value": {"tensor": {"dtype": "DT_INT64", "tensorShape": {}}}, "dtype": {"type": "DT_INT64"}}}, {"name": "PartitionedCall/model/tf.compat.v1.gather_50/GatherV2/indices", "op": "Const", "attr": {"dtype": {"type": "DT_INT32"}, "value": {"tensor": {"dtype": "DT_INT32", "tensorShape": {"dim": [{"size": "1"}]}}}}}, {"name": "PartitionedCall/model/tf.compat.v1.gather_50/GatherV2/axis", "op": "Const", "attr": {"value": {"tensor": {"dtype": "DT_INT32", "tensorShape": {}}}, "dtype": {"type": "DT_INT32"}}}, {"name": "PartitionedCall/model/tf.compat.v1.transpose_50/transpose/perm", "op": "Const", "attr": {"dtype": {"type": "DT_INT32"}, "value": {"tensor": {"dtype": "DT_INT32", "tensorShape": {"dim": [{"size": "2"}]}}}}}, {"name": "unknown_182", "op": "Const", "attr": {"value": {"tensor": {"dtype": "DT_INT64", "tensorShape": {}}}, "dtype": {"type": "DT_INT64"}}}, {"name": "unknown_181", "op": "Const", "attr": {"value": {"tensor": {"dtype": "DT_INT32", "tensorShape": {"dim": [{"size": "2"}, {"size": "2"}]}}}, "dtype": {"type": "DT_INT32"}}}, {"name": "unknown_187", "op": "Const", "attr": {"dtype": {"type": "DT_INT64"}, "value": {"tensor": {"dtype": "DT_INT64", "tensorShape": {}}}}}, {"name": "PartitionedCall/model/tf.compat.v1.gather_51/GatherV2/indices", "op": "Const", "attr": {"value": {"tensor": {"dtype": "DT_INT32", "tensorShape": {"dim": [{"size": "1"}]}}}, "dtype": {"type": "DT_INT32"}}}, {"name": "PartitionedCall/model/tf.compat.v1.gather_51/GatherV2/axis", "op": "Const", "attr": {"dtype": {"type": "DT_INT32"}, "value": {"tensor": {"dtype": "DT_INT32", "tensorShape": {}}}}}, {"name": "PartitionedCall/model/tf.compat.v1.transpose_51/transpose/perm", "op": "Const", "attr": {"value": {"tensor": {"dtype": "DT_INT32", "tensorShape": {"dim": [{"size": "2"}]}}}, "dtype": {"type": "DT_INT32"}}}, {"name": "unknown_186", "op": "Const", "attr": {"dtype": {"type": "DT_INT64"}, "value": {"tensor": {"dtype": "DT_INT64", "tensorShape": {}}}}}, {"name": "unknown_185", "op": "Const", "attr": {"value": {"tensor": {"dtype": "DT_INT32", "tensorShape": {"dim": [{"size": "2"}, {"size": "2"}]}}}, "dtype": {"type": "DT_INT32"}}}, {"name": "unknown_191", "op": "Const", "attr": {"dtype": {"type": "DT_INT64"}, "value": {"tensor": {"dtype": "DT_INT64", "tensorShape": {}}}}}, {"name": "PartitionedCall/model/tf.compat.v1.gather_52/GatherV2/indices", "op": "Const", "attr": {"dtype": {"type": "DT_INT32"}, "value": {"tensor": {"dtype": "DT_INT32", "tensorShape": {"dim": [{"size": "1"}]}}}}}, {"name": "PartitionedCall/model/tf.compat.v1.gather_52/GatherV2/axis", "op": "Const", "attr": {"dtype": {"type": "DT_INT32"}, "value": {"tensor": {"dtype": "DT_INT32", "tensorShape": {}}}}}, {"name": "PartitionedCall/model/tf.compat.v1.transpose_52/transpose/perm", "op": "Const", "attr": {"dtype": {"type": "DT_INT32"}, "value": {"tensor": {"dtype": "DT_INT32", "tensorShape": {"dim": [{"size": "2"}]}}}}}, {"name": "unknown_190", "op": "Const", "attr": {"value": {"tensor": {"dtype": "DT_INT64", "tensorShape": {}}}, "dtype": {"type": "DT_INT64"}}}, {"name": "unknown_189", "op": "Const", "attr": {"dtype": {"type": "DT_INT32"}, "value": {"tensor": {"dtype": "DT_INT32", "tensorShape": {"dim": [{"size": "2"}, {"size": "2"}]}}}}}, {"name": "unknown_195", "op": "Const", "attr": {"value": {"tensor": {"dtype": "DT_INT64", "tensorShape": {}}}, "dtype": {"type": "DT_INT64"}}}, {"name": "PartitionedCall/model/tf.compat.v1.gather_53/GatherV2/indices", "op": "Const", "attr": {"value": {"tensor": {"dtype": "DT_INT32", "tensorShape": {"dim": [{"size": "1"}]}}}, "dtype": {"type": "DT_INT32"}}}, {"name": "PartitionedCall/model/tf.compat.v1.gather_53/GatherV2/axis", "op": "Const", "attr": {"value": {"tensor": {"dtype": "DT_INT32", "tensorShape": {}}}, "dtype": {"type": "DT_INT32"}}}, {"name": "PartitionedCall/model/tf.compat.v1.transpose_53/transpose/perm", "op": "Const", "attr": {"dtype": {"type": "DT_INT32"}, "value": {"tensor": {"dtype": "DT_INT32", "tensorShape": {"dim": [{"size": "2"}]}}}}}, {"name": "unknown_194", "op": "Const", "attr": {"dtype": {"type": "DT_INT64"}, "value": {"tensor": {"dtype": "DT_INT64", "tensorShape": {}}}}}, {"name": "unknown_193", "op": "Const", "attr": {"dtype": {"type": "DT_INT32"}, "value": {"tensor": {"dtype": "DT_INT32", "tensorShape": {"dim": [{"size": "2"}, {"size": "2"}]}}}}}, {"name": "unknown_199", "op": "Const", "attr": {"dtype": {"type": "DT_INT64"}, "value": {"tensor": {"dtype": "DT_INT64", "tensorShape": {}}}}}, {"name": "PartitionedCall/model/tf.compat.v1.gather_54/GatherV2/indices", "op": "Const", "attr": {"value": {"tensor": {"dtype": "DT_INT32", "tensorShape": {"dim": [{"size": "1"}]}}}, "dtype": {"type": "DT_INT32"}}}, {"name": "PartitionedCall/model/tf.compat.v1.gather_54/GatherV2/axis", "op": "Const", "attr": {"value": {"tensor": {"dtype": "DT_INT32", "tensorShape": {}}}, "dtype": {"type": "DT_INT32"}}}, {"name": "PartitionedCall/model/tf.compat.v1.transpose_54/transpose/perm", "op": "Const", "attr": {"value": {"tensor": {"dtype": "DT_INT32", "tensorShape": {"dim": [{"size": "2"}]}}}, "dtype": {"type": "DT_INT32"}}}, {"name": "unknown_198", "op": "Const", "attr": {"value": {"tensor": {"dtype": "DT_INT64", "tensorShape": {}}}, "dtype": {"type": "DT_INT64"}}}, {"name": "unknown_197", "op": "Const", "attr": {"value": {"tensor": {"dtype": "DT_INT32", "tensorShape": {"dim": [{"size": "2"}, {"size": "2"}]}}}, "dtype": {"type": "DT_INT32"}}}, {"name": "unknown_203", "op": "Const", "attr": {"value": {"tensor": {"dtype": "DT_INT64", "tensorShape": {}}}, "dtype": {"type": "DT_INT64"}}}, {"name": "PartitionedCall/model/tf.compat.v1.gather_55/GatherV2/indices", "op": "Const", "attr": {"dtype": {"type": "DT_INT32"}, "value": {"tensor": {"dtype": "DT_INT32", "tensorShape": {"dim": [{"size": "1"}]}}}}}, {"name": "PartitionedCall/model/tf.compat.v1.gather_55/GatherV2/axis", "op": "Const", "attr": {"dtype": {"type": "DT_INT32"}, "value": {"tensor": {"dtype": "DT_INT32", "tensorShape": {}}}}}, {"name": "PartitionedCall/model/tf.compat.v1.transpose_55/transpose/perm", "op": "Const", "attr": {"value": {"tensor": {"dtype": "DT_INT32", "tensorShape": {"dim": [{"size": "2"}]}}}, "dtype": {"type": "DT_INT32"}}}, {"name": "unknown_202", "op": "Const", "attr": {"dtype": {"type": "DT_INT64"}, "value": {"tensor": {"dtype": "DT_INT64", "tensorShape": {}}}}}, {"name": "unknown_201", "op": "Const", "attr": {"value": {"tensor": {"dtype": "DT_INT32", "tensorShape": {"dim": [{"size": "2"}, {"size": "2"}]}}}, "dtype": {"type": "DT_INT32"}}}, {"name": "unknown_207", "op": "Const", "attr": {"dtype": {"type": "DT_INT64"}, "value": {"tensor": {"dtype": "DT_INT64", "tensorShape": {}}}}}, {"name": "PartitionedCall/model/tf.compat.v1.gather_56/GatherV2/indices", "op": "Const", "attr": {"dtype": {"type": "DT_INT32"}, "value": {"tensor": {"dtype": "DT_INT32", "tensorShape": {"dim": [{"size": "1"}]}}}}}, {"name": "PartitionedCall/model/tf.compat.v1.gather_56/GatherV2/axis", "op": "Const", "attr": {"dtype": {"type": "DT_INT32"}, "value": {"tensor": {"dtype": "DT_INT32", "tensorShape": {}}}}}, {"name": "PartitionedCall/model/tf.compat.v1.transpose_56/transpose/perm", "op": "Const", "attr": {"value": {"tensor": {"dtype": "DT_INT32", "tensorShape": {"dim": [{"size": "2"}]}}}, "dtype": {"type": "DT_INT32"}}}, {"name": "unknown_206", "op": "Const", "attr": {"value": {"tensor": {"dtype": "DT_INT64", "tensorShape": {}}}, "dtype": {"type": "DT_INT64"}}}, {"name": "unknown_205", "op": "Const", "attr": {"value": {"tensor": {"dtype": "DT_INT32", "tensorShape": {"dim": [{"size": "2"}, {"size": "2"}]}}}, "dtype": {"type": "DT_INT32"}}}, {"name": "unknown_211", "op": "Const", "attr": {"dtype": {"type": "DT_INT64"}, "value": {"tensor": {"dtype": "DT_INT64", "tensorShape": {}}}}}, {"name": "PartitionedCall/model/tf.compat.v1.gather_57/GatherV2/indices", "op": "Const", "attr": {"value": {"tensor": {"dtype": "DT_INT32", "tensorShape": {"dim": [{"size": "1"}]}}}, "dtype": {"type": "DT_INT32"}}}, {"name": "PartitionedCall/model/tf.compat.v1.gather_57/GatherV2/axis", "op": "Const", "attr": {"dtype": {"type": "DT_INT32"}, "value": {"tensor": {"dtype": "DT_INT32", "tensorShape": {}}}}}, {"name": "PartitionedCall/model/tf.compat.v1.transpose_57/transpose/perm", "op": "Const", "attr": {"value": {"tensor": {"dtype": "DT_INT32", "tensorShape": {"dim": [{"size": "2"}]}}}, "dtype": {"type": "DT_INT32"}}}, {"name": "unknown_210", "op": "Const", "attr": {"dtype": {"type": "DT_INT64"}, "value": {"tensor": {"dtype": "DT_INT64", "tensorShape": {}}}}}, {"name": "unknown_209", "op": "Const", "attr": {"value": {"tensor": {"dtype": "DT_INT32", "tensorShape": {"dim": [{"size": "2"}, {"size": "2"}]}}}, "dtype": {"type": "DT_INT32"}}}, {"name": "unknown_215", "op": "Const", "attr": {"dtype": {"type": "DT_INT64"}, "value": {"tensor": {"dtype": "DT_INT64", "tensorShape": {}}}}}, {"name": "PartitionedCall/model/tf.compat.v1.gather_58/GatherV2/indices", "op": "Const", "attr": {"dtype": {"type": "DT_INT32"}, "value": {"tensor": {"dtype": "DT_INT32", "tensorShape": {"dim": [{"size": "1"}]}}}}}, {"name": "PartitionedCall/model/tf.compat.v1.gather_58/GatherV2/axis", "op": "Const", "attr": {"value": {"tensor": {"dtype": "DT_INT32", "tensorShape": {}}}, "dtype": {"type": "DT_INT32"}}}, {"name": "PartitionedCall/model/tf.compat.v1.transpose_58/transpose/perm", "op": "Const", "attr": {"dtype": {"type": "DT_INT32"}, "value": {"tensor": {"dtype": "DT_INT32", "tensorShape": {"dim": [{"size": "2"}]}}}}}, {"name": "unknown_214", "op": "Const", "attr": {"dtype": {"type": "DT_INT64"}, "value": {"tensor": {"dtype": "DT_INT64", "tensorShape": {}}}}}, {"name": "unknown_213", "op": "Const", "attr": {"value": {"tensor": {"dtype": "DT_INT32", "tensorShape": {"dim": [{"size": "2"}, {"size": "2"}]}}}, "dtype": {"type": "DT_INT32"}}}, {"name": "unknown_219", "op": "Const", "attr": {"dtype": {"type": "DT_INT64"}, "value": {"tensor": {"dtype": "DT_INT64", "tensorShape": {}}}}}, {"name": "PartitionedCall/model/tf.compat.v1.gather_59/GatherV2/indices", "op": "Const", "attr": {"value": {"tensor": {"dtype": "DT_INT32", "tensorShape": {"dim": [{"size": "1"}]}}}, "dtype": {"type": "DT_INT32"}}}, {"name": "PartitionedCall/model/tf.compat.v1.gather_59/GatherV2/axis", "op": "Const", "attr": {"dtype": {"type": "DT_INT32"}, "value": {"tensor": {"dtype": "DT_INT32", "tensorShape": {}}}}}, {"name": "PartitionedCall/model/tf.compat.v1.transpose_59/transpose/perm", "op": "Const", "attr": {"dtype": {"type": "DT_INT32"}, "value": {"tensor": {"dtype": "DT_INT32", "tensorShape": {"dim": [{"size": "2"}]}}}}}, {"name": "unknown_218", "op": "Const", "attr": {"value": {"tensor": {"dtype": "DT_INT64", "tensorShape": {}}}, "dtype": {"type": "DT_INT64"}}}, {"name": "unknown_217", "op": "Const", "attr": {"value": {"tensor": {"dtype": "DT_INT32", "tensorShape": {"dim": [{"size": "2"}, {"size": "2"}]}}}, "dtype": {"type": "DT_INT32"}}}, {"name": "unknown_223", "op": "Const", "attr": {"dtype": {"type": "DT_INT64"}, "value": {"tensor": {"dtype": "DT_INT64", "tensorShape": {}}}}}, {"name": "PartitionedCall/model/tf.compat.v1.gather_60/GatherV2/indices", "op": "Const", "attr": {"value": {"tensor": {"dtype": "DT_INT32", "tensorShape": {"dim": [{"size": "1"}]}}}, "dtype": {"type": "DT_INT32"}}}, {"name": "PartitionedCall/model/tf.compat.v1.gather_60/GatherV2/axis", "op": "Const", "attr": {"dtype": {"type": "DT_INT32"}, "value": {"tensor": {"dtype": "DT_INT32", "tensorShape": {}}}}}, {"name": "PartitionedCall/model/tf.compat.v1.transpose_60/transpose/perm", "op": "Const", "attr": {"value": {"tensor": {"dtype": "DT_INT32", "tensorShape": {"dim": [{"size": "2"}]}}}, "dtype": {"type": "DT_INT32"}}}, {"name": "unknown_222", "op": "Const", "attr": {"value": {"tensor": {"dtype": "DT_INT64", "tensorShape": {}}}, "dtype": {"type": "DT_INT64"}}}, {"name": "unknown_221", "op": "Const", "attr": {"value": {"tensor": {"dtype": "DT_INT32", "tensorShape": {"dim": [{"size": "2"}, {"size": "2"}]}}}, "dtype": {"type": "DT_INT32"}}}, {"name": "unknown_227", "op": "Const", "attr": {"value": {"tensor": {"dtype": "DT_INT64", "tensorShape": {}}}, "dtype": {"type": "DT_INT64"}}}, {"name": "PartitionedCall/model/tf.compat.v1.gather_61/GatherV2/indices", "op": "Const", "attr": {"value": {"tensor": {"dtype": "DT_INT32", "tensorShape": {"dim": [{"size": "1"}]}}}, "dtype": {"type": "DT_INT32"}}}, {"name": "PartitionedCall/model/tf.compat.v1.gather_61/GatherV2/axis", "op": "Const", "attr": {"value": {"tensor": {"dtype": "DT_INT32", "tensorShape": {}}}, "dtype": {"type": "DT_INT32"}}}, {"name": "PartitionedCall/model/tf.compat.v1.transpose_61/transpose/perm", "op": "Const", "attr": {"value": {"tensor": {"dtype": "DT_INT32", "tensorShape": {"dim": [{"size": "2"}]}}}, "dtype": {"type": "DT_INT32"}}}, {"name": "unknown_226", "op": "Const", "attr": {"dtype": {"type": "DT_INT64"}, "value": {"tensor": {"dtype": "DT_INT64", "tensorShape": {}}}}}, {"name": "unknown_225", "op": "Const", "attr": {"value": {"tensor": {"dtype": "DT_INT32", "tensorShape": {"dim": [{"size": "2"}, {"size": "2"}]}}}, "dtype": {"type": "DT_INT32"}}}, {"name": "unknown_231", "op": "Const", "attr": {"dtype": {"type": "DT_INT64"}, "value": {"tensor": {"dtype": "DT_INT64", "tensorShape": {}}}}}, {"name": "PartitionedCall/model/tf.compat.v1.gather_62/GatherV2/indices", "op": "Const", "attr": {"value": {"tensor": {"dtype": "DT_INT32", "tensorShape": {"dim": [{"size": "1"}]}}}, "dtype": {"type": "DT_INT32"}}}, {"name": "PartitionedCall/model/tf.compat.v1.gather_62/GatherV2/axis", "op": "Const", "attr": {"value": {"tensor": {"dtype": "DT_INT32", "tensorShape": {}}}, "dtype": {"type": "DT_INT32"}}}, {"name": "PartitionedCall/model/tf.compat.v1.transpose_62/transpose/perm", "op": "Const", "attr": {"dtype": {"type": "DT_INT32"}, "value": {"tensor": {"dtype": "DT_INT32", "tensorShape": {"dim": [{"size": "2"}]}}}}}, {"name": "unknown_230", "op": "Const", "attr": {"dtype": {"type": "DT_INT64"}, "value": {"tensor": {"dtype": "DT_INT64", "tensorShape": {}}}}}, {"name": "unknown_229", "op": "Const", "attr": {"dtype": {"type": "DT_INT32"}, "value": {"tensor": {"dtype": "DT_INT32", "tensorShape": {"dim": [{"size": "2"}, {"size": "2"}]}}}}}, {"name": "unknown_235", "op": "Const", "attr": {"value": {"tensor": {"dtype": "DT_INT64", "tensorShape": {}}}, "dtype": {"type": "DT_INT64"}}}, {"name": "PartitionedCall/model/tf.compat.v1.gather_63/GatherV2/indices", "op": "Const", "attr": {"value": {"tensor": {"dtype": "DT_INT32", "tensorShape": {"dim": [{"size": "1"}]}}}, "dtype": {"type": "DT_INT32"}}}, {"name": "PartitionedCall/model/tf.compat.v1.gather_63/GatherV2/axis", "op": "Const", "attr": {"value": {"tensor": {"dtype": "DT_INT32", "tensorShape": {}}}, "dtype": {"type": "DT_INT32"}}}, {"name": "PartitionedCall/model/tf.compat.v1.transpose_63/transpose/perm", "op": "Const", "attr": {"dtype": {"type": "DT_INT32"}, "value": {"tensor": {"dtype": "DT_INT32", "tensorShape": {"dim": [{"size": "2"}]}}}}}, {"name": "unknown_234", "op": "Const", "attr": {"value": {"tensor": {"dtype": "DT_INT64", "tensorShape": {}}}, "dtype": {"type": "DT_INT64"}}}, {"name": "unknown_233", "op": "Const", "attr": {"value": {"tensor": {"dtype": "DT_INT32", "tensorShape": {"dim": [{"size": "2"}, {"size": "2"}]}}}, "dtype": {"type": "DT_INT32"}}}, {"name": "unknown_239", "op": "Const", "attr": {"value": {"tensor": {"dtype": "DT_INT64", "tensorShape": {}}}, "dtype": {"type": "DT_INT64"}}}, {"name": "PartitionedCall/model/tf.compat.v1.gather_64/GatherV2/indices", "op": "Const", "attr": {"value": {"tensor": {"dtype": "DT_INT32", "tensorShape": {"dim": [{"size": "1"}]}}}, "dtype": {"type": "DT_INT32"}}}, {"name": "PartitionedCall/model/tf.compat.v1.gather_64/GatherV2/axis", "op": "Const", "attr": {"value": {"tensor": {"dtype": "DT_INT32", "tensorShape": {}}}, "dtype": {"type": "DT_INT32"}}}, {"name": "PartitionedCall/model/tf.compat.v1.transpose_64/transpose/perm", "op": "Const", "attr": {"dtype": {"type": "DT_INT32"}, "value": {"tensor": {"dtype": "DT_INT32", "tensorShape": {"dim": [{"size": "2"}]}}}}}, {"name": "unknown_238", "op": "Const", "attr": {"dtype": {"type": "DT_INT64"}, "value": {"tensor": {"dtype": "DT_INT64", "tensorShape": {}}}}}, {"name": "unknown_237", "op": "Const", "attr": {"dtype": {"type": "DT_INT32"}, "value": {"tensor": {"dtype": "DT_INT32", "tensorShape": {"dim": [{"size": "2"}, {"size": "2"}]}}}}}, {"name": "unknown_243", "op": "Const", "attr": {"dtype": {"type": "DT_INT64"}, "value": {"tensor": {"dtype": "DT_INT64", "tensorShape": {}}}}}, {"name": "PartitionedCall/model/tf.compat.v1.gather_65/GatherV2/indices", "op": "Const", "attr": {"value": {"tensor": {"dtype": "DT_INT32", "tensorShape": {"dim": [{"size": "1"}]}}}, "dtype": {"type": "DT_INT32"}}}, {"name": "PartitionedCall/model/tf.compat.v1.gather_65/GatherV2/axis", "op": "Const", "attr": {"dtype": {"type": "DT_INT32"}, "value": {"tensor": {"dtype": "DT_INT32", "tensorShape": {}}}}}, {"name": "PartitionedCall/model/tf.compat.v1.transpose_65/transpose/perm", "op": "Const", "attr": {"dtype": {"type": "DT_INT32"}, "value": {"tensor": {"dtype": "DT_INT32", "tensorShape": {"dim": [{"size": "2"}]}}}}}, {"name": "unknown_242", "op": "Const", "attr": {"dtype": {"type": "DT_INT64"}, "value": {"tensor": {"dtype": "DT_INT64", "tensorShape": {}}}}}, {"name": "unknown_241", "op": "Const", "attr": {"value": {"tensor": {"dtype": "DT_INT32", "tensorShape": {"dim": [{"size": "2"}, {"size": "2"}]}}}, "dtype": {"type": "DT_INT32"}}}, {"name": "unknown_247", "op": "Const", "attr": {"dtype": {"type": "DT_INT64"}, "value": {"tensor": {"dtype": "DT_INT64", "tensorShape": {}}}}}, {"name": "PartitionedCall/model/tf.compat.v1.gather_66/GatherV2/indices", "op": "Const", "attr": {"dtype": {"type": "DT_INT32"}, "value": {"tensor": {"dtype": "DT_INT32", "tensorShape": {"dim": [{"size": "1"}]}}}}}, {"name": "PartitionedCall/model/tf.compat.v1.gather_66/GatherV2/axis", "op": "Const", "attr": {"value": {"tensor": {"dtype": "DT_INT32", "tensorShape": {}}}, "dtype": {"type": "DT_INT32"}}}, {"name": "PartitionedCall/model/tf.compat.v1.transpose_66/transpose/perm", "op": "Const", "attr": {"value": {"tensor": {"dtype": "DT_INT32", "tensorShape": {"dim": [{"size": "2"}]}}}, "dtype": {"type": "DT_INT32"}}}, {"name": "unknown_246", "op": "Const", "attr": {"value": {"tensor": {"dtype": "DT_INT64", "tensorShape": {}}}, "dtype": {"type": "DT_INT64"}}}, {"name": "unknown_245", "op": "Const", "attr": {"dtype": {"type": "DT_INT32"}, "value": {"tensor": {"dtype": "DT_INT32", "tensorShape": {"dim": [{"size": "2"}, {"size": "2"}]}}}}}, {"name": "unknown_251", "op": "Const", "attr": {"dtype": {"type": "DT_INT64"}, "value": {"tensor": {"dtype": "DT_INT64", "tensorShape": {}}}}}, {"name": "PartitionedCall/model/tf.compat.v1.gather_67/GatherV2/indices", "op": "Const", "attr": {"value": {"tensor": {"dtype": "DT_INT32", "tensorShape": {"dim": [{"size": "1"}]}}}, "dtype": {"type": "DT_INT32"}}}, {"name": "PartitionedCall/model/tf.compat.v1.gather_67/GatherV2/axis", "op": "Const", "attr": {"value": {"tensor": {"dtype": "DT_INT32", "tensorShape": {}}}, "dtype": {"type": "DT_INT32"}}}, {"name": "PartitionedCall/model/tf.compat.v1.transpose_67/transpose/perm", "op": "Const", "attr": {"dtype": {"type": "DT_INT32"}, "value": {"tensor": {"dtype": "DT_INT32", "tensorShape": {"dim": [{"size": "2"}]}}}}}, {"name": "unknown_250", "op": "Const", "attr": {"dtype": {"type": "DT_INT64"}, "value": {"tensor": {"dtype": "DT_INT64", "tensorShape": {}}}}}, {"name": "unknown_249", "op": "Const", "attr": {"dtype": {"type": "DT_INT32"}, "value": {"tensor": {"dtype": "DT_INT32", "tensorShape": {"dim": [{"size": "2"}, {"size": "2"}]}}}}}, {"name": "unknown_255", "op": "Const", "attr": {"dtype": {"type": "DT_INT64"}, "value": {"tensor": {"dtype": "DT_INT64", "tensorShape": {}}}}}, {"name": "PartitionedCall/model/tf.compat.v1.gather_68/GatherV2/indices", "op": "Const", "attr": {"value": {"tensor": {"dtype": "DT_INT32", "tensorShape": {"dim": [{"size": "1"}]}}}, "dtype": {"type": "DT_INT32"}}}, {"name": "PartitionedCall/model/tf.compat.v1.gather_68/GatherV2/axis", "op": "Const", "attr": {"dtype": {"type": "DT_INT32"}, "value": {"tensor": {"dtype": "DT_INT32", "tensorShape": {}}}}}, {"name": "PartitionedCall/model/tf.compat.v1.transpose_68/transpose/perm", "op": "Const", "attr": {"dtype": {"type": "DT_INT32"}, "value": {"tensor": {"dtype": "DT_INT32", "tensorShape": {"dim": [{"size": "2"}]}}}}}, {"name": "unknown_254", "op": "Const", "attr": {"dtype": {"type": "DT_INT64"}, "value": {"tensor": {"dtype": "DT_INT64", "tensorShape": {}}}}}, {"name": "unknown_253", "op": "Const", "attr": {"value": {"tensor": {"dtype": "DT_INT32", "tensorShape": {"dim": [{"size": "2"}, {"size": "2"}]}}}, "dtype": {"type": "DT_INT32"}}}, {"name": "unknown_259", "op": "Const", "attr": {"value": {"tensor": {"dtype": "DT_INT64", "tensorShape": {}}}, "dtype": {"type": "DT_INT64"}}}, {"name": "PartitionedCall/model/tf.compat.v1.gather_69/GatherV2/indices", "op": "Const", "attr": {"dtype": {"type": "DT_INT32"}, "value": {"tensor": {"dtype": "DT_INT32", "tensorShape": {"dim": [{"size": "1"}]}}}}}, {"name": "PartitionedCall/model/tf.compat.v1.gather_69/GatherV2/axis", "op": "Const", "attr": {"dtype": {"type": "DT_INT32"}, "value": {"tensor": {"dtype": "DT_INT32", "tensorShape": {}}}}}, {"name": "PartitionedCall/model/tf.compat.v1.transpose_69/transpose/perm", "op": "Const", "attr": {"value": {"tensor": {"dtype": "DT_INT32", "tensorShape": {"dim": [{"size": "2"}]}}}, "dtype": {"type": "DT_INT32"}}}, {"name": "unknown_258", "op": "Const", "attr": {"dtype": {"type": "DT_INT64"}, "value": {"tensor": {"dtype": "DT_INT64", "tensorShape": {}}}}}, {"name": "unknown_257", "op": "Const", "attr": {"dtype": {"type": "DT_INT32"}, "value": {"tensor": {"dtype": "DT_INT32", "tensorShape": {"dim": [{"size": "2"}, {"size": "2"}]}}}}}, {"name": "unknown_263", "op": "Const", "attr": {"dtype": {"type": "DT_INT64"}, "value": {"tensor": {"dtype": "DT_INT64", "tensorShape": {}}}}}, {"name": "PartitionedCall/model/tf.compat.v1.gather_70/GatherV2/indices", "op": "Const", "attr": {"dtype": {"type": "DT_INT32"}, "value": {"tensor": {"dtype": "DT_INT32", "tensorShape": {"dim": [{"size": "1"}]}}}}}, {"name": "PartitionedCall/model/tf.compat.v1.gather_70/GatherV2/axis", "op": "Const", "attr": {"dtype": {"type": "DT_INT32"}, "value": {"tensor": {"dtype": "DT_INT32", "tensorShape": {}}}}}, {"name": "PartitionedCall/model/tf.compat.v1.transpose_70/transpose/perm", "op": "Const", "attr": {"value": {"tensor": {"dtype": "DT_INT32", "tensorShape": {"dim": [{"size": "2"}]}}}, "dtype": {"type": "DT_INT32"}}}, {"name": "unknown_262", "op": "Const", "attr": {"value": {"tensor": {"dtype": "DT_INT64", "tensorShape": {}}}, "dtype": {"type": "DT_INT64"}}}, {"name": "unknown_261", "op": "Const", "attr": {"value": {"tensor": {"dtype": "DT_INT32", "tensorShape": {"dim": [{"size": "2"}, {"size": "2"}]}}}, "dtype": {"type": "DT_INT32"}}}, {"name": "unknown_267", "op": "Const", "attr": {"value": {"tensor": {"dtype": "DT_INT64", "tensorShape": {}}}, "dtype": {"type": "DT_INT64"}}}, {"name": "PartitionedCall/model/tf.compat.v1.gather_71/GatherV2/indices", "op": "Const", "attr": {"value": {"tensor": {"dtype": "DT_INT32", "tensorShape": {"dim": [{"size": "1"}]}}}, "dtype": {"type": "DT_INT32"}}}, {"name": "PartitionedCall/model/tf.compat.v1.gather_71/GatherV2/axis", "op": "Const", "attr": {"value": {"tensor": {"dtype": "DT_INT32", "tensorShape": {}}}, "dtype": {"type": "DT_INT32"}}}, {"name": "PartitionedCall/model/tf.compat.v1.transpose_71/transpose/perm", "op": "Const", "attr": {"dtype": {"type": "DT_INT32"}, "value": {"tensor": {"dtype": "DT_INT32", "tensorShape": {"dim": [{"size": "2"}]}}}}}, {"name": "unknown_266", "op": "Const", "attr": {"value": {"tensor": {"dtype": "DT_INT64", "tensorShape": {}}}, "dtype": {"type": "DT_INT64"}}}, {"name": "unknown_265", "op": "Const", "attr": {"value": {"tensor": {"dtype": "DT_INT32", "tensorShape": {"dim": [{"size": "2"}, {"size": "2"}]}}}, "dtype": {"type": "DT_INT32"}}}, {"name": "unknown_271", "op": "Const", "attr": {"value": {"tensor": {"dtype": "DT_INT64", "tensorShape": {}}}, "dtype": {"type": "DT_INT64"}}}, {"name": "PartitionedCall/model/tf.compat.v1.gather_72/GatherV2/indices", "op": "Const", "attr": {"value": {"tensor": {"dtype": "DT_INT32", "tensorShape": {"dim": [{"size": "1"}]}}}, "dtype": {"type": "DT_INT32"}}}, {"name": "PartitionedCall/model/tf.compat.v1.gather_72/GatherV2/axis", "op": "Const", "attr": {"value": {"tensor": {"dtype": "DT_INT32", "tensorShape": {}}}, "dtype": {"type": "DT_INT32"}}}, {"name": "PartitionedCall/model/tf.compat.v1.transpose_72/transpose/perm", "op": "Const", "attr": {"value": {"tensor": {"dtype": "DT_INT32", "tensorShape": {"dim": [{"size": "2"}]}}}, "dtype": {"type": "DT_INT32"}}}, {"name": "unknown_270", "op": "Const", "attr": {"value": {"tensor": {"dtype": "DT_INT64", "tensorShape": {}}}, "dtype": {"type": "DT_INT64"}}}, {"name": "unknown_269", "op": "Const", "attr": {"dtype": {"type": "DT_INT32"}, "value": {"tensor": {"dtype": "DT_INT32", "tensorShape": {"dim": [{"size": "2"}, {"size": "2"}]}}}}}, {"name": "unknown_275", "op": "Const", "attr": {"dtype": {"type": "DT_INT64"}, "value": {"tensor": {"dtype": "DT_INT64", "tensorShape": {}}}}}, {"name": "PartitionedCall/model/tf.compat.v1.gather_73/GatherV2/indices", "op": "Const", "attr": {"value": {"tensor": {"dtype": "DT_INT32", "tensorShape": {"dim": [{"size": "1"}]}}}, "dtype": {"type": "DT_INT32"}}}, {"name": "PartitionedCall/model/tf.compat.v1.gather_73/GatherV2/axis", "op": "Const", "attr": {"dtype": {"type": "DT_INT32"}, "value": {"tensor": {"dtype": "DT_INT32", "tensorShape": {}}}}}, {"name": "PartitionedCall/model/tf.compat.v1.transpose_73/transpose/perm", "op": "Const", "attr": {"value": {"tensor": {"dtype": "DT_INT32", "tensorShape": {"dim": [{"size": "2"}]}}}, "dtype": {"type": "DT_INT32"}}}, {"name": "unknown_274", "op": "Const", "attr": {"value": {"tensor": {"dtype": "DT_INT64", "tensorShape": {}}}, "dtype": {"type": "DT_INT64"}}}, {"name": "unknown_273", "op": "Const", "attr": {"dtype": {"type": "DT_INT32"}, "value": {"tensor": {"dtype": "DT_INT32", "tensorShape": {"dim": [{"size": "2"}, {"size": "2"}]}}}}}, {"name": "unknown_279", "op": "Const", "attr": {"dtype": {"type": "DT_INT64"}, "value": {"tensor": {"dtype": "DT_INT64", "tensorShape": {}}}}}, {"name": "PartitionedCall/model/tf.compat.v1.gather_74/GatherV2/indices", "op": "Const", "attr": {"value": {"tensor": {"dtype": "DT_INT32", "tensorShape": {"dim": [{"size": "1"}]}}}, "dtype": {"type": "DT_INT32"}}}, {"name": "PartitionedCall/model/tf.compat.v1.gather_74/GatherV2/axis", "op": "Const", "attr": {"value": {"tensor": {"dtype": "DT_INT32", "tensorShape": {}}}, "dtype": {"type": "DT_INT32"}}}, {"name": "PartitionedCall/model/tf.compat.v1.transpose_74/transpose/perm", "op": "Const", "attr": {"dtype": {"type": "DT_INT32"}, "value": {"tensor": {"dtype": "DT_INT32", "tensorShape": {"dim": [{"size": "2"}]}}}}}, {"name": "unknown_278", "op": "Const", "attr": {"value": {"tensor": {"dtype": "DT_INT64", "tensorShape": {}}}, "dtype": {"type": "DT_INT64"}}}, {"name": "unknown_277", "op": "Const", "attr": {"value": {"tensor": {"dtype": "DT_INT32", "tensorShape": {"dim": [{"size": "2"}, {"size": "2"}]}}}, "dtype": {"type": "DT_INT32"}}}, {"name": "unknown_283", "op": "Const", "attr": {"value": {"tensor": {"dtype": "DT_INT64", "tensorShape": {}}}, "dtype": {"type": "DT_INT64"}}}, {"name": "PartitionedCall/model/tf.compat.v1.gather_75/GatherV2/indices", "op": "Const", "attr": {"dtype": {"type": "DT_INT32"}, "value": {"tensor": {"dtype": "DT_INT32", "tensorShape": {"dim": [{"size": "1"}]}}}}}, {"name": "PartitionedCall/model/tf.compat.v1.gather_75/GatherV2/axis", "op": "Const", "attr": {"dtype": {"type": "DT_INT32"}, "value": {"tensor": {"dtype": "DT_INT32", "tensorShape": {}}}}}, {"name": "PartitionedCall/model/tf.compat.v1.transpose_75/transpose/perm", "op": "Const", "attr": {"value": {"tensor": {"dtype": "DT_INT32", "tensorShape": {"dim": [{"size": "2"}]}}}, "dtype": {"type": "DT_INT32"}}}, {"name": "unknown_282", "op": "Const", "attr": {"value": {"tensor": {"dtype": "DT_INT64", "tensorShape": {}}}, "dtype": {"type": "DT_INT64"}}}, {"name": "unknown_281", "op": "Const", "attr": {"dtype": {"type": "DT_INT32"}, "value": {"tensor": {"dtype": "DT_INT32", "tensorShape": {"dim": [{"size": "2"}, {"size": "2"}]}}}}}, {"name": "unknown_287", "op": "Const", "attr": {"value": {"tensor": {"dtype": "DT_INT64", "tensorShape": {}}}, "dtype": {"type": "DT_INT64"}}}, {"name": "PartitionedCall/model/tf.compat.v1.gather_76/GatherV2/indices", "op": "Const", "attr": {"dtype": {"type": "DT_INT32"}, "value": {"tensor": {"dtype": "DT_INT32", "tensorShape": {"dim": [{"size": "1"}]}}}}}, {"name": "PartitionedCall/model/tf.compat.v1.gather_76/GatherV2/axis", "op": "Const", "attr": {"value": {"tensor": {"dtype": "DT_INT32", "tensorShape": {}}}, "dtype": {"type": "DT_INT32"}}}, {"name": "PartitionedCall/model/tf.compat.v1.transpose_76/transpose/perm", "op": "Const", "attr": {"value": {"tensor": {"dtype": "DT_INT32", "tensorShape": {"dim": [{"size": "2"}]}}}, "dtype": {"type": "DT_INT32"}}}, {"name": "unknown_286", "op": "Const", "attr": {"value": {"tensor": {"dtype": "DT_INT64", "tensorShape": {}}}, "dtype": {"type": "DT_INT64"}}}, {"name": "unknown_285", "op": "Const", "attr": {"value": {"tensor": {"dtype": "DT_INT32", "tensorShape": {"dim": [{"size": "2"}, {"size": "2"}]}}}, "dtype": {"type": "DT_INT32"}}}, {"name": "unknown_291", "op": "Const", "attr": {"dtype": {"type": "DT_INT64"}, "value": {"tensor": {"dtype": "DT_INT64", "tensorShape": {}}}}}, {"name": "PartitionedCall/model/tf.compat.v1.gather_77/GatherV2/indices", "op": "Const", "attr": {"dtype": {"type": "DT_INT32"}, "value": {"tensor": {"dtype": "DT_INT32", "tensorShape": {"dim": [{"size": "1"}]}}}}}, {"name": "PartitionedCall/model/tf.compat.v1.gather_77/GatherV2/axis", "op": "Const", "attr": {"value": {"tensor": {"dtype": "DT_INT32", "tensorShape": {}}}, "dtype": {"type": "DT_INT32"}}}, {"name": "PartitionedCall/model/tf.compat.v1.transpose_77/transpose/perm", "op": "Const", "attr": {"value": {"tensor": {"dtype": "DT_INT32", "tensorShape": {"dim": [{"size": "2"}]}}}, "dtype": {"type": "DT_INT32"}}}, {"name": "unknown_290", "op": "Const", "attr": {"dtype": {"type": "DT_INT64"}, "value": {"tensor": {"dtype": "DT_INT64", "tensorShape": {}}}}}, {"name": "unknown_289", "op": "Const", "attr": {"dtype": {"type": "DT_INT32"}, "value": {"tensor": {"dtype": "DT_INT32", "tensorShape": {"dim": [{"size": "2"}, {"size": "2"}]}}}}}, {"name": "unknown_295", "op": "Const", "attr": {"dtype": {"type": "DT_INT64"}, "value": {"tensor": {"dtype": "DT_INT64", "tensorShape": {}}}}}, {"name": "PartitionedCall/model/tf.compat.v1.gather_78/GatherV2/indices", "op": "Const", "attr": {"dtype": {"type": "DT_INT32"}, "value": {"tensor": {"dtype": "DT_INT32", "tensorShape": {"dim": [{"size": "1"}]}}}}}, {"name": "PartitionedCall/model/tf.compat.v1.gather_78/GatherV2/axis", "op": "Const", "attr": {"value": {"tensor": {"dtype": "DT_INT32", "tensorShape": {}}}, "dtype": {"type": "DT_INT32"}}}, {"name": "PartitionedCall/model/tf.compat.v1.transpose_78/transpose/perm", "op": "Const", "attr": {"dtype": {"type": "DT_INT32"}, "value": {"tensor": {"dtype": "DT_INT32", "tensorShape": {"dim": [{"size": "2"}]}}}}}, {"name": "unknown_294", "op": "Const", "attr": {"value": {"tensor": {"dtype": "DT_INT64", "tensorShape": {}}}, "dtype": {"type": "DT_INT64"}}}, {"name": "unknown_293", "op": "Const", "attr": {"dtype": {"type": "DT_INT32"}, "value": {"tensor": {"dtype": "DT_INT32", "tensorShape": {"dim": [{"size": "2"}, {"size": "2"}]}}}}}, {"name": "unknown_299", "op": "Const", "attr": {"value": {"tensor": {"dtype": "DT_INT64", "tensorShape": {}}}, "dtype": {"type": "DT_INT64"}}}, {"name": "PartitionedCall/model/tf.compat.v1.gather_79/GatherV2/indices", "op": "Const", "attr": {"value": {"tensor": {"dtype": "DT_INT32", "tensorShape": {"dim": [{"size": "1"}]}}}, "dtype": {"type": "DT_INT32"}}}, {"name": "PartitionedCall/model/tf.compat.v1.gather_79/GatherV2/axis", "op": "Const", "attr": {"dtype": {"type": "DT_INT32"}, "value": {"tensor": {"dtype": "DT_INT32", "tensorShape": {}}}}}, {"name": "PartitionedCall/model/tf.compat.v1.transpose_79/transpose/perm", "op": "Const", "attr": {"value": {"tensor": {"dtype": "DT_INT32", "tensorShape": {"dim": [{"size": "2"}]}}}, "dtype": {"type": "DT_INT32"}}}, {"name": "unknown_298", "op": "Const", "attr": {"dtype": {"type": "DT_INT64"}, "value": {"tensor": {"dtype": "DT_INT64", "tensorShape": {}}}}}, {"name": "unknown_297", "op": "Const", "attr": {"value": {"tensor": {"dtype": "DT_INT32", "tensorShape": {"dim": [{"size": "2"}, {"size": "2"}]}}}, "dtype": {"type": "DT_INT32"}}}, {"name": "unknown_303", "op": "Const", "attr": {"dtype": {"type": "DT_INT64"}, "value": {"tensor": {"dtype": "DT_INT64", "tensorShape": {}}}}}, {"name": "PartitionedCall/model/tf.compat.v1.gather_80/GatherV2/indices", "op": "Const", "attr": {"dtype": {"type": "DT_INT32"}, "value": {"tensor": {"dtype": "DT_INT32", "tensorShape": {"dim": [{"size": "1"}]}}}}}, {"name": "PartitionedCall/model/tf.compat.v1.gather_80/GatherV2/axis", "op": "Const", "attr": {"dtype": {"type": "DT_INT32"}, "value": {"tensor": {"dtype": "DT_INT32", "tensorShape": {}}}}}, {"name": "PartitionedCall/model/tf.compat.v1.transpose_80/transpose/perm", "op": "Const", "attr": {"value": {"tensor": {"dtype": "DT_INT32", "tensorShape": {"dim": [{"size": "2"}]}}}, "dtype": {"type": "DT_INT32"}}}, {"name": "unknown_302", "op": "Const", "attr": {"value": {"tensor": {"dtype": "DT_INT64", "tensorShape": {}}}, "dtype": {"type": "DT_INT64"}}}, {"name": "unknown_301", "op": "Const", "attr": {"value": {"tensor": {"dtype": "DT_INT32", "tensorShape": {"dim": [{"size": "2"}, {"size": "2"}]}}}, "dtype": {"type": "DT_INT32"}}}, {"name": "unknown_307", "op": "Const", "attr": {"value": {"tensor": {"dtype": "DT_INT64", "tensorShape": {}}}, "dtype": {"type": "DT_INT64"}}}, {"name": "PartitionedCall/model/tf.compat.v1.gather_81/GatherV2/indices", "op": "Const", "attr": {"value": {"tensor": {"dtype": "DT_INT32", "tensorShape": {"dim": [{"size": "1"}]}}}, "dtype": {"type": "DT_INT32"}}}, {"name": "PartitionedCall/model/tf.compat.v1.gather_81/GatherV2/axis", "op": "Const", "attr": {"value": {"tensor": {"dtype": "DT_INT32", "tensorShape": {}}}, "dtype": {"type": "DT_INT32"}}}, {"name": "PartitionedCall/model/tf.compat.v1.transpose_81/transpose/perm", "op": "Const", "attr": {"value": {"tensor": {"dtype": "DT_INT32", "tensorShape": {"dim": [{"size": "2"}]}}}, "dtype": {"type": "DT_INT32"}}}, {"name": "unknown_306", "op": "Const", "attr": {"dtype": {"type": "DT_INT64"}, "value": {"tensor": {"dtype": "DT_INT64", "tensorShape": {}}}}}, {"name": "unknown_305", "op": "Const", "attr": {"dtype": {"type": "DT_INT32"}, "value": {"tensor": {"dtype": "DT_INT32", "tensorShape": {"dim": [{"size": "2"}, {"size": "2"}]}}}}}, {"name": "unknown_311", "op": "Const", "attr": {"dtype": {"type": "DT_INT64"}, "value": {"tensor": {"dtype": "DT_INT64", "tensorShape": {}}}}}, {"name": "PartitionedCall/model/tf.compat.v1.gather_82/GatherV2/indices", "op": "Const", "attr": {"value": {"tensor": {"dtype": "DT_INT32", "tensorShape": {"dim": [{"size": "1"}]}}}, "dtype": {"type": "DT_INT32"}}}, {"name": "PartitionedCall/model/tf.compat.v1.gather_82/GatherV2/axis", "op": "Const", "attr": {"value": {"tensor": {"dtype": "DT_INT32", "tensorShape": {}}}, "dtype": {"type": "DT_INT32"}}}, {"name": "PartitionedCall/model/tf.compat.v1.transpose_82/transpose/perm", "op": "Const", "attr": {"dtype": {"type": "DT_INT32"}, "value": {"tensor": {"dtype": "DT_INT32", "tensorShape": {"dim": [{"size": "2"}]}}}}}, {"name": "unknown_310", "op": "Const", "attr": {"value": {"tensor": {"dtype": "DT_INT64", "tensorShape": {}}}, "dtype": {"type": "DT_INT64"}}}, {"name": "unknown_309", "op": "Const", "attr": {"value": {"tensor": {"dtype": "DT_INT32", "tensorShape": {"dim": [{"size": "2"}, {"size": "2"}]}}}, "dtype": {"type": "DT_INT32"}}}, {"name": "unknown_315", "op": "Const", "attr": {"dtype": {"type": "DT_INT64"}, "value": {"tensor": {"dtype": "DT_INT64", "tensorShape": {}}}}}, {"name": "PartitionedCall/model/tf.compat.v1.gather_83/GatherV2/indices", "op": "Const", "attr": {"dtype": {"type": "DT_INT32"}, "value": {"tensor": {"dtype": "DT_INT32", "tensorShape": {"dim": [{"size": "1"}]}}}}}, {"name": "PartitionedCall/model/tf.compat.v1.gather_83/GatherV2/axis", "op": "Const", "attr": {"dtype": {"type": "DT_INT32"}, "value": {"tensor": {"dtype": "DT_INT32", "tensorShape": {}}}}}, {"name": "PartitionedCall/model/tf.compat.v1.transpose_83/transpose/perm", "op": "Const", "attr": {"value": {"tensor": {"dtype": "DT_INT32", "tensorShape": {"dim": [{"size": "2"}]}}}, "dtype": {"type": "DT_INT32"}}}, {"name": "unknown_314", "op": "Const", "attr": {"dtype": {"type": "DT_INT64"}, "value": {"tensor": {"dtype": "DT_INT64", "tensorShape": {}}}}}, {"name": "unknown_313", "op": "Const", "attr": {"value": {"tensor": {"dtype": "DT_INT32", "tensorShape": {"dim": [{"size": "2"}, {"size": "2"}]}}}, "dtype": {"type": "DT_INT32"}}}, {"name": "unknown_319", "op": "Const", "attr": {"dtype": {"type": "DT_INT64"}, "value": {"tensor": {"dtype": "DT_INT64", "tensorShape": {}}}}}, {"name": "PartitionedCall/model/tf.compat.v1.gather_84/GatherV2/indices", "op": "Const", "attr": {"dtype": {"type": "DT_INT32"}, "value": {"tensor": {"dtype": "DT_INT32", "tensorShape": {"dim": [{"size": "1"}]}}}}}, {"name": "PartitionedCall/model/tf.compat.v1.gather_84/GatherV2/axis", "op": "Const", "attr": {"value": {"tensor": {"dtype": "DT_INT32", "tensorShape": {}}}, "dtype": {"type": "DT_INT32"}}}, {"name": "PartitionedCall/model/tf.compat.v1.transpose_84/transpose/perm", "op": "Const", "attr": {"value": {"tensor": {"dtype": "DT_INT32", "tensorShape": {"dim": [{"size": "2"}]}}}, "dtype": {"type": "DT_INT32"}}}, {"name": "unknown_318", "op": "Const", "attr": {"value": {"tensor": {"dtype": "DT_INT64", "tensorShape": {}}}, "dtype": {"type": "DT_INT64"}}}, {"name": "unknown_317", "op": "Const", "attr": {"dtype": {"type": "DT_INT32"}, "value": {"tensor": {"dtype": "DT_INT32", "tensorShape": {"dim": [{"size": "2"}, {"size": "2"}]}}}}}, {"name": "unknown_322", "op": "Const", "attr": {"value": {"tensor": {"dtype": "DT_INT64", "tensorShape": {}}}, "dtype": {"type": "DT_INT64"}}}, {"name": "PartitionedCall/model/tf.compat.v1.gather_85/GatherV2/indices", "op": "Const", "attr": {"value": {"tensor": {"dtype": "DT_INT32", "tensorShape": {"dim": [{"size": "1"}]}}}, "dtype": {"type": "DT_INT32"}}}, {"name": "PartitionedCall/model/tf.compat.v1.gather_85/GatherV2/axis", "op": "Const", "attr": {"value": {"tensor": {"dtype": "DT_INT32", "tensorShape": {}}}, "dtype": {"type": "DT_INT32"}}}, {"name": "PartitionedCall/model/tf.compat.v1.transpose_85/transpose/perm", "op": "Const", "attr": {"value": {"tensor": {"dtype": "DT_INT32", "tensorShape": {"dim": [{"size": "2"}]}}}, "dtype": {"type": "DT_INT32"}}}, {"name": "unknown_321", "op": "Const", "attr": {"value": {"tensor": {"dtype": "DT_INT64", "tensorShape": {}}}, "dtype": {"type": "DT_INT64"}}}, {"name": "unknown_320", "op": "Const", "attr": {"dtype": {"type": "DT_INT32"}, "value": {"tensor": {"dtype": "DT_INT32", "tensorShape": {"dim": [{"size": "2"}, {"size": "2"}]}}}}}, {"name": "unknown_325", "op": "Const", "attr": {"value": {"tensor": {"dtype": "DT_INT64", "tensorShape": {}}}, "dtype": {"type": "DT_INT64"}}}, {"name": "PartitionedCall/model/tf.compat.v1.gather_86/GatherV2/indices", "op": "Const", "attr": {"value": {"tensor": {"dtype": "DT_INT32", "tensorShape": {"dim": [{"size": "1"}]}}}, "dtype": {"type": "DT_INT32"}}}, {"name": "PartitionedCall/model/tf.compat.v1.gather_86/GatherV2/axis", "op": "Const", "attr": {"dtype": {"type": "DT_INT32"}, "value": {"tensor": {"dtype": "DT_INT32", "tensorShape": {}}}}}, {"name": "PartitionedCall/model/tf.compat.v1.transpose_86/transpose/perm", "op": "Const", "attr": {"dtype": {"type": "DT_INT32"}, "value": {"tensor": {"dtype": "DT_INT32", "tensorShape": {"dim": [{"size": "2"}]}}}}}, {"name": "unknown_324", "op": "Const", "attr": {"dtype": {"type": "DT_INT64"}, "value": {"tensor": {"dtype": "DT_INT64", "tensorShape": {}}}}}, {"name": "unknown_323", "op": "Const", "attr": {"dtype": {"type": "DT_INT32"}, "value": {"tensor": {"dtype": "DT_INT32", "tensorShape": {"dim": [{"size": "2"}, {"size": "2"}]}}}}}, {"name": "unknown_328", "op": "Const", "attr": {"value": {"tensor": {"dtype": "DT_INT64", "tensorShape": {}}}, "dtype": {"type": "DT_INT64"}}}, {"name": "PartitionedCall/model/tf.compat.v1.gather_87/GatherV2/indices", "op": "Const", "attr": {"dtype": {"type": "DT_INT32"}, "value": {"tensor": {"dtype": "DT_INT32", "tensorShape": {"dim": [{"size": "1"}]}}}}}, {"name": "PartitionedCall/model/tf.compat.v1.gather_87/GatherV2/axis", "op": "Const", "attr": {"value": {"tensor": {"dtype": "DT_INT32", "tensorShape": {}}}, "dtype": {"type": "DT_INT32"}}}, {"name": "PartitionedCall/model/tf.compat.v1.transpose_87/transpose/perm", "op": "Const", "attr": {"dtype": {"type": "DT_INT32"}, "value": {"tensor": {"dtype": "DT_INT32", "tensorShape": {"dim": [{"size": "2"}]}}}}}, {"name": "unknown_327", "op": "Const", "attr": {"dtype": {"type": "DT_INT64"}, "value": {"tensor": {"dtype": "DT_INT64", "tensorShape": {}}}}}, {"name": "unknown_326", "op": "Const", "attr": {"value": {"tensor": {"dtype": "DT_INT32", "tensorShape": {"dim": [{"size": "2"}, {"size": "2"}]}}}, "dtype": {"type": "DT_INT32"}}}, {"name": "unknown_331", "op": "Const", "attr": {"value": {"tensor": {"dtype": "DT_INT64", "tensorShape": {}}}, "dtype": {"type": "DT_INT64"}}}, {"name": "PartitionedCall/model/tf.compat.v1.gather_88/GatherV2/indices", "op": "Const", "attr": {"value": {"tensor": {"dtype": "DT_INT32", "tensorShape": {"dim": [{"size": "1"}]}}}, "dtype": {"type": "DT_INT32"}}}, {"name": "PartitionedCall/model/tf.compat.v1.gather_88/GatherV2/axis", "op": "Const", "attr": {"value": {"tensor": {"dtype": "DT_INT32", "tensorShape": {}}}, "dtype": {"type": "DT_INT32"}}}, {"name": "PartitionedCall/model/tf.compat.v1.transpose_88/transpose/perm", "op": "Const", "attr": {"dtype": {"type": "DT_INT32"}, "value": {"tensor": {"dtype": "DT_INT32", "tensorShape": {"dim": [{"size": "2"}]}}}}}, {"name": "unknown_330", "op": "Const", "attr": {"value": {"tensor": {"dtype": "DT_INT64", "tensorShape": {}}}, "dtype": {"type": "DT_INT64"}}}, {"name": "unknown_329", "op": "Const", "attr": {"value": {"tensor": {"dtype": "DT_INT32", "tensorShape": {"dim": [{"size": "2"}, {"size": "2"}]}}}, "dtype": {"type": "DT_INT32"}}}, {"name": "unknown_334", "op": "Const", "attr": {"value": {"tensor": {"dtype": "DT_INT64", "tensorShape": {}}}, "dtype": {"type": "DT_INT64"}}}, {"name": "PartitionedCall/model/tf.compat.v1.gather_2/GatherV2/indices", "op": "Const", "attr": {"dtype": {"type": "DT_INT64"}, "value": {"tensor": {"dtype": "DT_INT64", "tensorShape": {}}}}}, {"name": "PartitionedCall/model/tf.compat.v1.gather_2/GatherV2/axis", "op": "Const", "attr": {"value": {"tensor": {"dtype": "DT_INT32", "tensorShape": {}}}, "dtype": {"type": "DT_INT32"}}}, {"name": "PartitionedCall/model/tf.compat.v1.gather_3/GatherV2/indices", "op": "Const", "attr": {"value": {"tensor": {"dtype": "DT_INT64", "tensorShape": {}}}, "dtype": {"type": "DT_INT64"}}}, {"name": "PartitionedCall/model/tf.compat.v1.gather_3/GatherV2/axis", "op": "Const", "attr": {"value": {"tensor": {"dtype": "DT_INT32", "tensorShape": {}}}, "dtype": {"type": "DT_INT32"}}}, {"name": "ConstantFolding/PartitionedCall/model/tf.math.divide_1/truediv_recip", "op": "Const", "attr": {"dtype": {"type": "DT_FLOAT"}, "value": {"tensor": {"dtype": "DT_FLOAT", "tensorShape": {}}}}}, {"name": "PartitionedCall/model/tf.reshape_7/Reshape/shape", "op": "Const", "attr": {"value": {"tensor": {"dtype": "DT_INT32", "tensorShape": {"dim": [{"size": "3"}]}}}, "dtype": {"type": "DT_INT32"}}}, {"name": "PartitionedCall/model/tf.compat.v1.gather/GatherV2/indices", "op": "Const", "attr": {"value": {"tensor": {"dtype": "DT_INT64", "tensorShape": {}}}, "dtype": {"type": "DT_INT64"}}}, {"name": "PartitionedCall/model/tf.compat.v1.gather/GatherV2/axis", "op": "Const", "attr": {"value": {"tensor": {"dtype": "DT_INT32", "tensorShape": {}}}, "dtype": {"type": "DT_INT32"}}}, {"name": "PartitionedCall/model/tf.compat.v1.gather_1/GatherV2/indices", "op": "Const", "attr": {"dtype": {"type": "DT_INT64"}, "value": {"tensor": {"dtype": "DT_INT64", "tensorShape": {}}}}}, {"name": "PartitionedCall/model/tf.compat.v1.gather_1/GatherV2/axis", "op": "Const", "attr": {"dtype": {"type": "DT_INT32"}, "value": {"tensor": {"dtype": "DT_INT32", "tensorShape": {}}}}}, {"name": "ConstantFolding/PartitionedCall/model/tf.math.divide/truediv_recip", "op": "Const", "attr": {"value": {"tensor": {"dtype": "DT_FLOAT", "tensorShape": {}}}, "dtype": {"type": "DT_FLOAT"}}}, {"name": "PartitionedCall/model/tf.reshape_6/Reshape/shape", "op": "Const", "attr": {"value": {"tensor": {"dtype": "DT_INT32", "tensorShape": {"dim": [{"size": "3"}]}}}, "dtype": {"type": "DT_INT32"}}}, {"name": "PartitionedCall/model/tf.compat.v1.gather_6/GatherV2/indices", "op": "Const", "attr": {"value": {"tensor": {"dtype": "DT_INT64", "tensorShape": {}}}, "dtype": {"type": "DT_INT64"}}}, {"name": "PartitionedCall/model/tf.compat.v1.gather_6/GatherV2/axis", "op": "Const", "attr": {"value": {"tensor": {"dtype": "DT_INT32", "tensorShape": {}}}, "dtype": {"type": "DT_INT32"}}}, {"name": "PartitionedCall/model/tf.compat.v1.gather_7/GatherV2/indices", "op": "Const", "attr": {"value": {"tensor": {"dtype": "DT_INT64", "tensorShape": {}}}, "dtype": {"type": "DT_INT64"}}}, {"name": "PartitionedCall/model/tf.compat.v1.gather_7/GatherV2/axis", "op": "Const", "attr": {"dtype": {"type": "DT_INT32"}, "value": {"tensor": {"dtype": "DT_INT32", "tensorShape": {}}}}}, {"name": "ConstantFolding/PartitionedCall/model/tf.math.divide_3/truediv_recip", "op": "Const", "attr": {"value": {"tensor": {"dtype": "DT_FLOAT", "tensorShape": {}}}, "dtype": {"type": "DT_FLOAT"}}}, {"name": "PartitionedCall/model/tf.reshape_9/Reshape/shape", "op": "Const", "attr": {"dtype": {"type": "DT_INT32"}, "value": {"tensor": {"dtype": "DT_INT32", "tensorShape": {"dim": [{"size": "3"}]}}}}}, {"name": "PartitionedCall/model/tf.compat.v1.gather_4/GatherV2/indices", "op": "Const", "attr": {"dtype": {"type": "DT_INT64"}, "value": {"tensor": {"dtype": "DT_INT64", "tensorShape": {}}}}}, {"name": "PartitionedCall/model/tf.compat.v1.gather_4/GatherV2/axis", "op": "Const", "attr": {"value": {"tensor": {"dtype": "DT_INT32", "tensorShape": {}}}, "dtype": {"type": "DT_INT32"}}}, {"name": "unknown_3", "op": "Const", "attr": {"dtype": {"type": "DT_INT64"}, "value": {"tensor": {"dtype": "DT_INT64", "tensorShape": {"dim": [{"size": "3"}]}}}}}, {"name": "unknown_4", "op": "Const", "attr": {"dtype": {"type": "DT_INT64"}, "value": {"tensor": {"dtype": "DT_INT64", "tensorShape": {"dim": [{"size": "3"}]}}}}}, {"name": "unknown_5", "op": "Const", "attr": {"dtype": {"type": "DT_INT64"}, "value": {"tensor": {"dtype": "DT_INT64", "tensorShape": {"dim": [{"size": "3"}]}}}}}, {"name": "PartitionedCall/model/tf.compat.v1.gather_5/GatherV2/indices", "op": "Const", "attr": {"dtype": {"type": "DT_INT64"}, "value": {"tensor": {"dtype": "DT_INT64", "tensorShape": {}}}}}, {"name": "PartitionedCall/model/tf.compat.v1.gather_5/GatherV2/axis", "op": "Const", "attr": {"dtype": {"type": "DT_INT32"}, "value": {"tensor": {"dtype": "DT_INT32", "tensorShape": {}}}}}, {"name": "ConstantFolding/PartitionedCall/model/tf.math.divide_2/truediv_recip", "op": "Const", "attr": {"dtype": {"type": "DT_FLOAT"}, "value": {"tensor": {"dtype": "DT_FLOAT", "tensorShape": {}}}}}, {"name": "PartitionedCall/model/tf.reshape_8/Reshape/shape", "op": "Const", "attr": {"dtype": {"type": "DT_INT32"}, "value": {"tensor": {"dtype": "DT_INT32", "tensorShape": {"dim": [{"size": "3"}]}}}}}, {"name": "PartitionedCall/model/tf.concat_18/concat/axis", "op": "Const", "attr": {"dtype": {"type": "DT_INT32"}, "value": {"tensor": {"dtype": "DT_INT32", "tensorShape": {}}}}}, {"name": "PartitionedCall/model/tf.compat.v1.gather_8/GatherV2/indices", "op": "Const", "attr": {"value": {"tensor": {"dtype": "DT_INT32", "tensorShape": {"dim": [{"size": "1"}]}}}, "dtype": {"type": "DT_INT32"}}}, {"name": "PartitionedCall/model/tf.compat.v1.gather_8/GatherV2/axis", "op": "Const", "attr": {"dtype": {"type": "DT_INT32"}, "value": {"tensor": {"dtype": "DT_INT32", "tensorShape": {}}}}}, {"name": "unknown_6", "op": "Const", "attr": {"dtype": {"type": "DT_INT64"}, "value": {"tensor": {"dtype": "DT_INT64", "tensorShape": {"dim": [{"size": "3"}]}}}}}, {"name": "unknown_7", "op": "Const", "attr": {"value": {"tensor": {"dtype": "DT_INT64", "tensorShape": {"dim": [{"size": "3"}]}}}, "dtype": {"type": "DT_INT64"}}}, {"name": "unknown_8", "op": "Const", "attr": {"value": {"tensor": {"dtype": "DT_INT64", "tensorShape": {"dim": [{"size": "3"}]}}}, "dtype": {"type": "DT_INT64"}}}, {"name": "PartitionedCall/model/tf.math.multiply/Mul/y", "op": "Const", "attr": {"value": {"tensor": {"dtype": "DT_FLOAT", "tensorShape": {}}}, "dtype": {"type": "DT_FLOAT"}}}, {"name": "PartitionedCall/model/tf.math.add_47/Add/y", "op": "Const", "attr": {"dtype": {"type": "DT_FLOAT"}, "value": {"tensor": {"dtype": "DT_FLOAT", "tensorShape": {"dim": [{"size": "1"}, {"size": "3"}, {"size": "60"}, {"size": "80"}, {"size": "2"}]}}}}}, {"name": "PartitionedCall/model/tf.math.multiply_2/Mul/y", "op": "Const", "attr": {"dtype": {"type": "DT_FLOAT"}, "value": {"tensor": {"dtype": "DT_FLOAT", "tensorShape": {}}}}}, {"name": "PartitionedCall/model/tf.math.multiply_1/Mul/y", "op": "Const", "attr": {"value": {"tensor": {"dtype": "DT_FLOAT", "tensorShape": {}}}, "dtype": {"type": "DT_FLOAT"}}}, {"name": "PartitionedCall/model/tf.math.multiply_3/Mul/y", "op": "Const", "attr": {"dtype": {"type": "DT_FLOAT"}, "value": {"tensor": {"dtype": "DT_FLOAT", "tensorShape": {"dim": [{"size": "1"}, {"size": "3"}, {"size": "60"}, {"size": "80"}, {"size": "2"}]}}}}}, {"name": "PartitionedCall/model/tf.nn.convolution_41/convolution_internal/filters", "op": "Const", "attr": {"dtype": {"type": "DT_FLOAT"}, "value": {"tensor": {"dtype": "DT_FLOAT", "tensorShape": {"dim": [{"size": "3"}, {"size": "3"}, {"size": "64"}, {"size": "128"}]}}}}}, {"name": "PartitionedCall/model/tf.math.add_41/Add/y", "op": "Const", "attr": {"value": {"tensor": {"dtype": "DT_FLOAT", "tensorShape": {"dim": [{"size": "128"}]}}}, "dtype": {"type": "DT_FLOAT"}}}, {"name": "PartitionedCall/model/tf.nn.convolution_42/convolution_internal/filters", "op": "Const", "attr": {"dtype": {"type": "DT_FLOAT"}, "value": {"tensor": {"dtype": "DT_FLOAT", "tensorShape": {"dim": [{"size": "1"}, {"size": "1"}, {"size": "128"}, {"size": "255"}]}}}}}, {"name": "PartitionedCall/model/tf.math.add_42/Add/y", "op": "Const", "attr": {"dtype": {"type": "DT_FLOAT"}, "value": {"tensor": {"dtype": "DT_FLOAT", "tensorShape": {"dim": [{"size": "255"}]}}}}}, {"name": "PartitionedCall/model/tf.compat.v1.transpose/transpose/perm", "op": "Const", "attr": {"dtype": {"type": "DT_INT32"}, "value": {"tensor": {"dtype": "DT_INT32", "tensorShape": {"dim": [{"size": "4"}]}}}}}, {"name": "PartitionedCall/model/tf.reshape/Reshape/shape", "op": "Const", "attr": {"value": {"tensor": {"dtype": "DT_INT32", "tensorShape": {"dim": [{"size": "5"}]}}}, "dtype": {"type": "DT_INT32"}}}, {"name": "PartitionedCall/model/tf.compat.v1.transpose_1/transpose/perm", "op": "Const", "attr": {"dtype": {"type": "DT_INT32"}, "value": {"tensor": {"dtype": "DT_INT32", "tensorShape": {"dim": [{"size": "5"}]}}}}}, {"name": "PartitionedCall/model/tf.split/Const", "op": "Const", "attr": {"value": {"tensor": {"dtype": "DT_INT32", "tensorShape": {"dim": [{"size": "3"}]}}}, "dtype": {"type": "DT_INT32"}}}, {"name": "PartitionedCall/model/tf.split/split/split_dim", "op": "Const", "attr": {"dtype": {"type": "DT_INT32"}, "value": {"tensor": {"dtype": "DT_INT32", "tensorShape": {}}}}}, {"name": "PartitionedCall/model/tf.concat_12/concat/axis", "op": "Const", "attr": {"dtype": {"type": "DT_INT32"}, "value": {"tensor": {"dtype": "DT_INT32", "tensorShape": {}}}}}, {"name": "PartitionedCall/model/tf.reshape_1/Reshape/shape", "op": "Const", "attr": {"value": {"tensor": {"dtype": "DT_INT32", "tensorShape": {"dim": [{"size": "3"}]}}}, "dtype": {"type": "DT_INT32"}}}, {"name": "PartitionedCall/model/tf.math.multiply_4/Mul/y", "op": "Const", "attr": {"value": {"tensor": {"dtype": "DT_FLOAT", "tensorShape": {}}}, "dtype": {"type": "DT_FLOAT"}}}, {"name": "PartitionedCall/model/tf.math.add_56/Add/y", "op": "Const", "attr": {"dtype": {"type": "DT_FLOAT"}, "value": {"tensor": {"dtype": "DT_FLOAT", "tensorShape": {"dim": [{"size": "1"}, {"size": "3"}, {"size": "30"}, {"size": "40"}, {"size": "2"}]}}}}}, {"name": "PartitionedCall/model/tf.math.multiply_6/Mul/y", "op": "Const", "attr": {"dtype": {"type": "DT_FLOAT"}, "value": {"tensor": {"dtype": "DT_FLOAT", "tensorShape": {}}}}}, {"name": "PartitionedCall/model/tf.math.multiply_5/Mul/y", "op": "Const", "attr": {"value": {"tensor": {"dtype": "DT_FLOAT", "tensorShape": {}}}, "dtype": {"type": "DT_FLOAT"}}}, {"name": "PartitionedCall/model/tf.math.multiply_7/Mul/y", "op": "Const", "attr": {"value": {"tensor": {"dtype": "DT_FLOAT", "tensorShape": {"dim": [{"size": "1"}, {"size": "3"}, {"size": "30"}, {"size": "40"}, {"size": "2"}]}}}, "dtype": {"type": "DT_FLOAT"}}}, {"name": "PartitionedCall/model/tf.nn.convolution_49/convolution_internal/filters", "op": "Const", "attr": {"value": {"tensor": {"dtype": "DT_FLOAT", "tensorShape": {"dim": [{"size": "3"}, {"size": "3"}, {"size": "128"}, {"size": "256"}]}}}, "dtype": {"type": "DT_FLOAT"}}}, {"name": "PartitionedCall/model/tf.math.add_50/Add/y", "op": "Const", "attr": {"dtype": {"type": "DT_FLOAT"}, "value": {"tensor": {"dtype": "DT_FLOAT", "tensorShape": {"dim": [{"size": "256"}]}}}}}, {"name": "PartitionedCall/model/tf.nn.convolution_50/convolution_internal/filters", "op": "Const", "attr": {"value": {"tensor": {"dtype": "DT_FLOAT", "tensorShape": {"dim": [{"size": "1"}, {"size": "1"}, {"size": "256"}, {"size": "255"}]}}}, "dtype": {"type": "DT_FLOAT"}}}, {"name": "PartitionedCall/model/tf.math.add_51/Add/y", "op": "Const", "attr": {"dtype": {"type": "DT_FLOAT"}, "value": {"tensor": {"dtype": "DT_FLOAT", "tensorShape": {"dim": [{"size": "255"}]}}}}}, {"name": "PartitionedCall/model/tf.compat.v1.transpose_3/transpose/perm", "op": "Const", "attr": {"dtype": {"type": "DT_INT32"}, "value": {"tensor": {"dtype": "DT_INT32", "tensorShape": {"dim": [{"size": "4"}]}}}}}, {"name": "PartitionedCall/model/tf.reshape_2/Reshape/shape", "op": "Const", "attr": {"value": {"tensor": {"dtype": "DT_INT32", "tensorShape": {"dim": [{"size": "5"}]}}}, "dtype": {"type": "DT_INT32"}}}, {"name": "PartitionedCall/model/tf.compat.v1.transpose_4/transpose/perm", "op": "Const", "attr": {"dtype": {"type": "DT_INT32"}, "value": {"tensor": {"dtype": "DT_INT32", "tensorShape": {"dim": [{"size": "5"}]}}}}}, {"name": "PartitionedCall/model/tf.split_1/Const", "op": "Const", "attr": {"value": {"tensor": {"dtype": "DT_INT32", "tensorShape": {"dim": [{"size": "3"}]}}}, "dtype": {"type": "DT_INT32"}}}, {"name": "PartitionedCall/model/tf.split_1/split/split_dim", "op": "Const", "attr": {"value": {"tensor": {"dtype": "DT_INT32", "tensorShape": {}}}, "dtype": {"type": "DT_INT32"}}}, {"name": "PartitionedCall/model/tf.concat_15/concat/axis", "op": "Const", "attr": {"dtype": {"type": "DT_INT32"}, "value": {"tensor": {"dtype": "DT_INT32", "tensorShape": {}}}}}, {"name": "PartitionedCall/model/tf.reshape_3/Reshape/shape", "op": "Const", "attr": {"dtype": {"type": "DT_INT32"}, "value": {"tensor": {"dtype": "DT_INT32", "tensorShape": {"dim": [{"size": "3"}]}}}}}, {"name": "PartitionedCall/model/tf.math.multiply_8/Mul/y", "op": "Const", "attr": {"value": {"tensor": {"dtype": "DT_FLOAT", "tensorShape": {}}}, "dtype": {"type": "DT_FLOAT"}}}, {"name": "PartitionedCall/model/tf.math.add_60/Add/y", "op": "Const", "attr": {"dtype": {"type": "DT_FLOAT"}, "value": {"tensor": {"dtype": "DT_FLOAT", "tensorShape": {"dim": [{"size": "1"}, {"size": "3"}, {"size": "15"}, {"size": "20"}, {"size": "2"}]}}}}}, {"name": "PartitionedCall/model/tf.math.multiply_10/Mul/y", "op": "Const", "attr": {"value": {"tensor": {"dtype": "DT_FLOAT", "tensorShape": {}}}, "dtype": {"type": "DT_FLOAT"}}}, {"name": "PartitionedCall/model/tf.math.multiply_9/Mul/y", "op": "Const", "attr": {"dtype": {"type": "DT_FLOAT"}, "value": {"tensor": {"dtype": "DT_FLOAT", "tensorShape": {}}}}}, {"name": "PartitionedCall/model/tf.math.multiply_11/Mul/y", "op": "Const", "attr": {"value": {"tensor": {"dtype": "DT_FLOAT", "tensorShape": {"dim": [{"size": "1"}, {"size": "3"}, {"size": "15"}, {"size": "20"}, {"size": "2"}]}}}, "dtype": {"type": "DT_FLOAT"}}}, {"name": "PartitionedCall/model/tf.nn.convolution_54/convolution_internal/filters", "op": "Const", "attr": {"dtype": {"type": "DT_FLOAT"}, "value": {"tensor": {"dtype": "DT_FLOAT", "tensorShape": {"dim": [{"size": "3"}, {"size": "3"}, {"size": "128"}, {"size": "128"}]}}}}}, {"name": "PartitionedCall/model/tf.math.add_55/Add/y", "op": "Const", "attr": {"value": {"tensor": {"dtype": "DT_FLOAT", "tensorShape": {"dim": [{"size": "128"}]}}}, "dtype": {"type": "DT_FLOAT"}}}, {"name": "PartitionedCall/model/tf.nn.convolution_53/convolution_internal/filters", "op": "Const", "attr": {"value": {"tensor": {"dtype": "DT_FLOAT", "tensorShape": {"dim": [{"size": "3"}, {"size": "3"}, {"size": "128"}, {"size": "128"}]}}}, "dtype": {"type": "DT_FLOAT"}}}, {"name": "PartitionedCall/model/tf.math.add_54/Add/y", "op": "Const", "attr": {"value": {"tensor": {"dtype": "DT_FLOAT", "tensorShape": {"dim": [{"size": "128"}]}}}, "dtype": {"type": "DT_FLOAT"}}}, {"name": "PartitionedCall/model/tf.nn.convolution_52/convolution_internal/filters", "op": "Const", "attr": {"dtype": {"type": "DT_FLOAT"}, "value": {"tensor": {"dtype": "DT_FLOAT", "tensorShape": {"dim": [{"size": "1"}, {"size": "1"}, {"size": "512"}, {"size": "128"}]}}}}}, {"name": "PartitionedCall/model/tf.math.add_53/Add/y", "op": "Const", "attr": {"dtype": {"type": "DT_FLOAT"}, "value": {"tensor": {"dtype": "DT_FLOAT", "tensorShape": {"dim": [{"size": "128"}]}}}}}, {"name": "PartitionedCall/model/tf.nn.convolution_46/convolution_internal/filters", "op": "Const", "attr": {"dtype": {"type": "DT_FLOAT"}, "value": {"tensor": {"dtype": "DT_FLOAT", "tensorShape": {"dim": [{"size": "3"}, {"size": "3"}, {"size": "64"}, {"size": "64"}]}}}}}, {"name": "PartitionedCall/model/tf.math.add_46/Add/y", "op": "Const", "attr": {"dtype": {"type": "DT_FLOAT"}, "value": {"tensor": {"dtype": "DT_FLOAT", "tensorShape": {"dim": [{"size": "64"}]}}}}}, {"name": "PartitionedCall/model/tf.nn.convolution_45/convolution_internal/filters", "op": "Const", "attr": {"dtype": {"type": "DT_FLOAT"}, "value": {"tensor": {"dtype": "DT_FLOAT", "tensorShape": {"dim": [{"size": "3"}, {"size": "3"}, {"size": "64"}, {"size": "64"}]}}}}}, {"name": "PartitionedCall/model/tf.math.add_45/Add/y", "op": "Const", "attr": {"dtype": {"type": "DT_FLOAT"}, "value": {"tensor": {"dtype": "DT_FLOAT", "tensorShape": {"dim": [{"size": "64"}]}}}}}, {"name": "PartitionedCall/model/tf.nn.convolution_44/convolution_internal/filters", "op": "Const", "attr": {"value": {"tensor": {"dtype": "DT_FLOAT", "tensorShape": {"dim": [{"size": "1"}, {"size": "1"}, {"size": "256"}, {"size": "64"}]}}}, "dtype": {"type": "DT_FLOAT"}}}, {"name": "PartitionedCall/model/tf.math.add_44/Add/y", "op": "Const", "attr": {"dtype": {"type": "DT_FLOAT"}, "value": {"tensor": {"dtype": "DT_FLOAT", "tensorShape": {"dim": [{"size": "64"}]}}}}}, {"name": "PartitionedCall/model/tf.nn.convolution_38/convolution_internal/filters", "op": "Const", "attr": {"value": {"tensor": {"dtype": "DT_FLOAT", "tensorShape": {"dim": [{"size": "3"}, {"size": "3"}, {"size": "32"}, {"size": "32"}]}}}, "dtype": {"type": "DT_FLOAT"}}}, {"name": "PartitionedCall/model/tf.math.add_38/Add/y", "op": "Const", "attr": {"value": {"tensor": {"dtype": "DT_FLOAT", "tensorShape": {"dim": [{"size": "32"}]}}}, "dtype": {"type": "DT_FLOAT"}}}, {"name": "PartitionedCall/model/tf.nn.convolution_37/convolution_internal/filters", "op": "Const", "attr": {"dtype": {"type": "DT_FLOAT"}, "value": {"tensor": {"dtype": "DT_FLOAT", "tensorShape": {"dim": [{"size": "3"}, {"size": "3"}, {"size": "32"}, {"size": "32"}]}}}}}, {"name": "PartitionedCall/model/tf.math.add_37/Add/y", "op": "Const", "attr": {"value": {"tensor": {"dtype": "DT_FLOAT", "tensorShape": {"dim": [{"size": "32"}]}}}, "dtype": {"type": "DT_FLOAT"}}}, {"name": "PartitionedCall/model/tf.nn.convolution_36/convolution_internal/filters", "op": "Const", "attr": {"dtype": {"type": "DT_FLOAT"}, "value": {"tensor": {"dtype": "DT_FLOAT", "tensorShape": {"dim": [{"size": "1"}, {"size": "1"}, {"size": "128"}, {"size": "32"}]}}}}}, {"name": "PartitionedCall/model/tf.math.add_36/Add/y", "op": "Const", "attr": {"value": {"tensor": {"dtype": "DT_FLOAT", "tensorShape": {"dim": [{"size": "32"}]}}}, "dtype": {"type": "DT_FLOAT"}}}, {"name": "PartitionedCall/model/tf.nn.convolution_12/convolution_internal/filters", "op": "Const", "attr": {"value": {"tensor": {"dtype": "DT_FLOAT", "tensorShape": {"dim": [{"size": "1"}, {"size": "1"}, {"size": "128"}, {"size": "64"}]}}}, "dtype": {"type": "DT_FLOAT"}}}, {"name": "PartitionedCall/model/tf.math.add_12/Add/y", "op": "Const", "attr": {"value": {"tensor": {"dtype": "DT_FLOAT", "tensorShape": {"dim": [{"size": "64"}]}}}, "dtype": {"type": "DT_FLOAT"}}}, {"name": "PartitionedCall/model/tf.nn.convolution_34/convolution_internal/filters", "op": "Const", "attr": {"value": {"tensor": {"dtype": "DT_FLOAT", "tensorShape": {"dim": [{"size": "1"}, {"size": "1"}, {"size": "128"}, {"size": "64"}]}}}, "dtype": {"type": "DT_FLOAT"}}}, {"name": "PartitionedCall/model/tf.math.add_34/Add/y", "op": "Const", "attr": {"value": {"tensor": {"dtype": "DT_FLOAT", "tensorShape": {"dim": [{"size": "64"}]}}}, "dtype": {"type": "DT_FLOAT"}}}, {"name": "PartitionedCall/model/lambda_1/Resize_91/size", "op": "Const", "attr": {"value": {"tensor": {"dtype": "DT_INT32", "tensorShape": {"dim": [{"size": "2"}]}}}, "dtype": {"type": "DT_INT32"}}}, {"name": "PartitionedCall/model/tf.concat_8/concat/axis", "op": "Const", "attr": {"dtype": {"type": "DT_INT32"}, "value": {"tensor": {"dtype": "DT_INT32", "tensorShape": {}}}}}, {"name": "PartitionedCall/model/tf.nn.convolution_35/convolution_internal/filters", "op": "Const", "attr": {"value": {"tensor": {"dtype": "DT_FLOAT", "tensorShape": {"dim": [{"size": "1"}, {"size": "1"}, {"size": "128"}, {"size": "32"}]}}}, "dtype": {"type": "DT_FLOAT"}}}, {"name": "PartitionedCall/model/tf.math.add_35/Add/y", "op": "Const", "attr": {"value": {"tensor": {"dtype": "DT_FLOAT", "tensorShape": {"dim": [{"size": "32"}]}}}, "dtype": {"type": "DT_FLOAT"}}}, {"name": "PartitionedCall/model/tf.concat_9/concat/axis", "op": "Const", "attr": {"value": {"tensor": {"dtype": "DT_INT32", "tensorShape": {}}}, "dtype": {"type": "DT_INT32"}}}, {"name": "PartitionedCall/model/tf.nn.convolution_39/convolution_internal/filters", "op": "Const", "attr": {"dtype": {"type": "DT_FLOAT"}, "value": {"tensor": {"dtype": "DT_FLOAT", "tensorShape": {"dim": [{"size": "1"}, {"size": "1"}, {"size": "128"}, {"size": "64"}]}}}}}, {"name": "PartitionedCall/model/tf.math.add_39/Add/y", "op": "Const", "attr": {"value": {"tensor": {"dtype": "DT_FLOAT", "tensorShape": {"dim": [{"size": "64"}]}}}, "dtype": {"type": "DT_FLOAT"}}}, {"name": "unknown_1", "op": "Const", "attr": {"value": {"tensor": {"dtype": "DT_INT32", "tensorShape": {"dim": [{"size": "4"}, {"size": "2"}]}}}, "dtype": {"type": "DT_INT32"}}}, {"name": "PartitionedCall/model/tf.nn.convolution_40/convolution_internal/filters", "op": "Const", "attr": {"value": {"tensor": {"dtype": "DT_FLOAT", "tensorShape": {"dim": [{"size": "3"}, {"size": "3"}, {"size": "64"}, {"size": "128"}]}}}, "dtype": {"type": "DT_FLOAT"}}}, {"name": "PartitionedCall/model/tf.math.add_40/Add/y", "op": "Const", "attr": {"value": {"tensor": {"dtype": "DT_FLOAT", "tensorShape": {"dim": [{"size": "128"}]}}}, "dtype": {"type": "DT_FLOAT"}}}, {"name": "PartitionedCall/model/tf.nn.convolution_32/convolution_internal/filters", "op": "Const", "attr": {"value": {"tensor": {"dtype": "DT_FLOAT", "tensorShape": {"dim": [{"size": "3"}, {"size": "3"}, {"size": "64"}, {"size": "64"}]}}}, "dtype": {"type": "DT_FLOAT"}}}, {"name": "PartitionedCall/model/tf.math.add_32/Add/y", "op": "Const", "attr": {"value": {"tensor": {"dtype": "DT_FLOAT", "tensorShape": {"dim": [{"size": "64"}]}}}, "dtype": {"type": "DT_FLOAT"}}}, {"name": "PartitionedCall/model/tf.nn.convolution_31/convolution_internal/filters", "op": "Const", "attr": {"value": {"tensor": {"dtype": "DT_FLOAT", "tensorShape": {"dim": [{"size": "3"}, {"size": "3"}, {"size": "64"}, {"size": "64"}]}}}, "dtype": {"type": "DT_FLOAT"}}}, {"name": "PartitionedCall/model/tf.math.add_31/Add/y", "op": "Const", "attr": {"value": {"tensor": {"dtype": "DT_FLOAT", "tensorShape": {"dim": [{"size": "64"}]}}}, "dtype": {"type": "DT_FLOAT"}}}, {"name": "PartitionedCall/model/tf.nn.convolution_30/convolution_internal/filters", "op": "Const", "attr": {"dtype": {"type": "DT_FLOAT"}, "value": {"tensor": {"dtype": "DT_FLOAT", "tensorShape": {"dim": [{"size": "1"}, {"size": "1"}, {"size": "256"}, {"size": "64"}]}}}}}, {"name": "PartitionedCall/model/tf.math.add_30/Add/y", "op": "Const", "attr": {"dtype": {"type": "DT_FLOAT"}, "value": {"tensor": {"dtype": "DT_FLOAT", "tensorShape": {"dim": [{"size": "64"}]}}}}}, {"name": "PartitionedCall/model/tf.nn.convolution_18/convolution_internal/filters", "op": "Const", "attr": {"value": {"tensor": {"dtype": "DT_FLOAT", "tensorShape": {"dim": [{"size": "1"}, {"size": "1"}, {"size": "256"}, {"size": "128"}]}}}, "dtype": {"type": "DT_FLOAT"}}}, {"name": "PartitionedCall/model/tf.math.add_18/Add/y", "op": "Const", "attr": {"dtype": {"type": "DT_FLOAT"}, "value": {"tensor": {"dtype": "DT_FLOAT", "tensorShape": {"dim": [{"size": "128"}]}}}}}, {"name": "PartitionedCall/model/tf.nn.convolution_28/convolution_internal/filters", "op": "Const", "attr": {"dtype": {"type": "DT_FLOAT"}, "value": {"tensor": {"dtype": "DT_FLOAT", "tensorShape": {"dim": [{"size": "1"}, {"size": "1"}, {"size": "256"}, {"size": "128"}]}}}}}, {"name": "PartitionedCall/model/tf.math.add_28/Add/y", "op": "Const", "attr": {"value": {"tensor": {"dtype": "DT_FLOAT", "tensorShape": {"dim": [{"size": "128"}]}}}, "dtype": {"type": "DT_FLOAT"}}}, {"name": "PartitionedCall/model/lambda/Resize_70/size", "op": "Const", "attr": {"dtype": {"type": "DT_INT32"}, "value": {"tensor": {"dtype": "DT_INT32", "tensorShape": {"dim": [{"size": "2"}]}}}}}, {"name": "PartitionedCall/model/tf.concat_6/concat/axis", "op": "Const", "attr": {"value": {"tensor": {"dtype": "DT_INT32", "tensorShape": {}}}, "dtype": {"type": "DT_INT32"}}}, {"name": "PartitionedCall/model/tf.nn.convolution_29/convolution_internal/filters", "op": "Const", "attr": {"dtype": {"type": "DT_FLOAT"}, "value": {"tensor": {"dtype": "DT_FLOAT", "tensorShape": {"dim": [{"size": "1"}, {"size": "1"}, {"size": "256"}, {"size": "64"}]}}}}}, {"name": "PartitionedCall/model/tf.math.add_29/Add/y", "op": "Const", "attr": {"dtype": {"type": "DT_FLOAT"}, "value": {"tensor": {"dtype": "DT_FLOAT", "tensorShape": {"dim": [{"size": "64"}]}}}}}, {"name": "PartitionedCall/model/tf.concat_7/concat/axis", "op": "Const", "attr": {"value": {"tensor": {"dtype": "DT_INT32", "tensorShape": {}}}, "dtype": {"type": "DT_INT32"}}}, {"name": "PartitionedCall/model/tf.nn.convolution_33/convolution_internal/filters", "op": "Const", "attr": {"dtype": {"type": "DT_FLOAT"}, "value": {"tensor": {"dtype": "DT_FLOAT", "tensorShape": {"dim": [{"size": "1"}, {"size": "1"}, {"size": "256"}, {"size": "128"}]}}}}}, {"name": "PartitionedCall/model/tf.math.add_33/Add/y", "op": "Const", "attr": {"dtype": {"type": "DT_FLOAT"}, "value": {"tensor": {"dtype": "DT_FLOAT", "tensorShape": {"dim": [{"size": "128"}]}}}}}, {"name": "PartitionedCall/model/tf.concat_10/concat/axis", "op": "Const", "attr": {"dtype": {"type": "DT_INT32"}, "value": {"tensor": {"dtype": "DT_INT32", "tensorShape": {}}}}}, {"name": "PartitionedCall/model/tf.nn.convolution_43/convolution_internal/filters", "op": "Const", "attr": {"dtype": {"type": "DT_FLOAT"}, "value": {"tensor": {"dtype": "DT_FLOAT", "tensorShape": {"dim": [{"size": "1"}, {"size": "1"}, {"size": "256"}, {"size": "64"}]}}}}}, {"name": "PartitionedCall/model/tf.math.add_43/Add/y", "op": "Const", "attr": {"dtype": {"type": "DT_FLOAT"}, "value": {"tensor": {"dtype": "DT_FLOAT", "tensorShape": {"dim": [{"size": "64"}]}}}}}, {"name": "PartitionedCall/model/tf.concat_11/concat/axis", "op": "Const", "attr": {"dtype": {"type": "DT_INT32"}, "value": {"tensor": {"dtype": "DT_INT32", "tensorShape": {}}}}}, {"name": "PartitionedCall/model/tf.nn.convolution_47/convolution_internal/filters", "op": "Const", "attr": {"value": {"tensor": {"dtype": "DT_FLOAT", "tensorShape": {"dim": [{"size": "1"}, {"size": "1"}, {"size": "256"}, {"size": "128"}]}}}, "dtype": {"type": "DT_FLOAT"}}}, {"name": "PartitionedCall/model/tf.math.add_48/Add/y", "op": "Const", "attr": {"value": {"tensor": {"dtype": "DT_FLOAT", "tensorShape": {"dim": [{"size": "128"}]}}}, "dtype": {"type": "DT_FLOAT"}}}, {"name": "unknown_2", "op": "Const", "attr": {"dtype": {"type": "DT_INT32"}, "value": {"tensor": {"dtype": "DT_INT32", "tensorShape": {"dim": [{"size": "4"}, {"size": "2"}]}}}}}, {"name": "PartitionedCall/model/tf.nn.convolution_48/convolution_internal/filters", "op": "Const", "attr": {"value": {"tensor": {"dtype": "DT_FLOAT", "tensorShape": {"dim": [{"size": "3"}, {"size": "3"}, {"size": "128"}, {"size": "256"}]}}}, "dtype": {"type": "DT_FLOAT"}}}, {"name": "PartitionedCall/model/tf.math.add_49/Add/y", "op": "Const", "attr": {"dtype": {"type": "DT_FLOAT"}, "value": {"tensor": {"dtype": "DT_FLOAT", "tensorShape": {"dim": [{"size": "256"}]}}}}}, {"name": "PartitionedCall/model/tf.nn.convolution_25/convolution_internal/filters", "op": "Const", "attr": {"value": {"tensor": {"dtype": "DT_FLOAT", "tensorShape": {"dim": [{"size": "1"}, {"size": "1"}, {"size": "512"}, {"size": "256"}]}}}, "dtype": {"type": "DT_FLOAT"}}}, {"name": "PartitionedCall/model/tf.math.add_25/Add/y", "op": "Const", "attr": {"dtype": {"type": "DT_FLOAT"}, "value": {"tensor": {"dtype": "DT_FLOAT", "tensorShape": {"dim": [{"size": "256"}]}}}}}, {"name": "PartitionedCall/model/tf.concat_4/concat/axis", "op": "Const", "attr": {"dtype": {"type": "DT_INT32"}, "value": {"tensor": {"dtype": "DT_INT32", "tensorShape": {}}}}}, {"name": "PartitionedCall/model/tf.nn.convolution_26/convolution_internal/filters", "op": "Const", "attr": {"value": {"tensor": {"dtype": "DT_FLOAT", "tensorShape": {"dim": [{"size": "1"}, {"size": "1"}, {"size": "1024"}, {"size": "256"}]}}}, "dtype": {"type": "DT_FLOAT"}}}, {"name": "PartitionedCall/model/tf.math.add_26/Add/y", "op": "Const", "attr": {"value": {"tensor": {"dtype": "DT_FLOAT", "tensorShape": {"dim": [{"size": "256"}]}}}, "dtype": {"type": "DT_FLOAT"}}}, {"name": "PartitionedCall/model/tf.nn.convolution_22/convolution_internal/filters", "op": "Const", "attr": {"dtype": {"type": "DT_FLOAT"}, "value": {"tensor": {"dtype": "DT_FLOAT", "tensorShape": {"dim": [{"size": "3"}, {"size": "3"}, {"size": "256"}, {"size": "256"}]}}}}}, {"name": "PartitionedCall/model/tf.math.add_22/Add/y", "op": "Const", "attr": {"value": {"tensor": {"dtype": "DT_FLOAT", "tensorShape": {"dim": [{"size": "256"}]}}}, "dtype": {"type": "DT_FLOAT"}}}, {"name": "PartitionedCall/model/tf.nn.convolution_21/convolution_internal/filters", "op": "Const", "attr": {"dtype": {"type": "DT_FLOAT"}, "value": {"tensor": {"dtype": "DT_FLOAT", "tensorShape": {"dim": [{"size": "3"}, {"size": "3"}, {"size": "256"}, {"size": "256"}]}}}}}, {"name": "PartitionedCall/model/tf.math.add_21/Add/y", "op": "Const", "attr": {"value": {"tensor": {"dtype": "DT_FLOAT", "tensorShape": {"dim": [{"size": "256"}]}}}, "dtype": {"type": "DT_FLOAT"}}}, {"name": "PartitionedCall/model/tf.nn.convolution_20/convolution_internal/filters", "op": "Const", "attr": {"value": {"tensor": {"dtype": "DT_FLOAT", "tensorShape": {"dim": [{"size": "1"}, {"size": "1"}, {"size": "256"}, {"size": "256"}]}}}, "dtype": {"type": "DT_FLOAT"}}}, {"name": "PartitionedCall/model/tf.math.add_20/Add/y", "op": "Const", "attr": {"value": {"tensor": {"dtype": "DT_FLOAT", "tensorShape": {"dim": [{"size": "256"}]}}}, "dtype": {"type": "DT_FLOAT"}}}, {"name": "PartitionedCall/model/tf.nn.convolution_16/convolution_internal/filters", "op": "Const", "attr": {"dtype": {"type": "DT_FLOAT"}, "value": {"tensor": {"dtype": "DT_FLOAT", "tensorShape": {"dim": [{"size": "3"}, {"size": "3"}, {"size": "128"}, {"size": "128"}]}}}}}, {"name": "PartitionedCall/model/tf.math.add_16/Add/y", "op": "Const", "attr": {"value": {"tensor": {"dtype": "DT_FLOAT", "tensorShape": {"dim": [{"size": "128"}]}}}, "dtype": {"type": "DT_FLOAT"}}}, {"name": "PartitionedCall/model/tf.nn.convolution_15/convolution_internal/filters", "op": "Const", "attr": {"value": {"tensor": {"dtype": "DT_FLOAT", "tensorShape": {"dim": [{"size": "3"}, {"size": "3"}, {"size": "128"}, {"size": "128"}]}}}, "dtype": {"type": "DT_FLOAT"}}}, {"name": "PartitionedCall/model/tf.math.add_15/Add/y", "op": "Const", "attr": {"value": {"tensor": {"dtype": "DT_FLOAT", "tensorShape": {"dim": [{"size": "128"}]}}}, "dtype": {"type": "DT_FLOAT"}}}, {"name": "PartitionedCall/model/tf.nn.convolution_14/convolution_internal/filters", "op": "Const", "attr": {"value": {"tensor": {"dtype": "DT_FLOAT", "tensorShape": {"dim": [{"size": "1"}, {"size": "1"}, {"size": "128"}, {"size": "128"}]}}}, "dtype": {"type": "DT_FLOAT"}}}, {"name": "PartitionedCall/model/tf.math.add_14/Add/y", "op": "Const", "attr": {"value": {"tensor": {"dtype": "DT_FLOAT", "tensorShape": {"dim": [{"size": "128"}]}}}, "dtype": {"type": "DT_FLOAT"}}}, {"name": "PartitionedCall/model/tf.nn.convolution_10/convolution_internal/filters", "op": "Const", "attr": {"value": {"tensor": {"dtype": "DT_FLOAT", "tensorShape": {"dim": [{"size": "3"}, {"size": "3"}, {"size": "64"}, {"size": "64"}]}}}, "dtype": {"type": "DT_FLOAT"}}}, {"name": "PartitionedCall/model/tf.math.add_10/Add/y", "op": "Const", "attr": {"value": {"tensor": {"dtype": "DT_FLOAT", "tensorShape": {"dim": [{"size": "64"}]}}}, "dtype": {"type": "DT_FLOAT"}}}, {"name": "PartitionedCall/model/tf.nn.convolution_9/convolution_internal/filters", "op": "Const", "attr": {"value": {"tensor": {"dtype": "DT_FLOAT", "tensorShape": {"dim": [{"size": "3"}, {"size": "3"}, {"size": "64"}, {"size": "64"}]}}}, "dtype": {"type": "DT_FLOAT"}}}, {"name": "PartitionedCall/model/tf.math.add_9/Add/y", "op": "Const", "attr": {"value": {"tensor": {"dtype": "DT_FLOAT", "tensorShape": {"dim": [{"size": "64"}]}}}, "dtype": {"type": "DT_FLOAT"}}}, {"name": "PartitionedCall/model/tf.nn.convolution_8/convolution_internal/filters", "op": "Const", "attr": {"value": {"tensor": {"dtype": "DT_FLOAT", "tensorShape": {"dim": [{"size": "1"}, {"size": "1"}, {"size": "64"}, {"size": "64"}]}}}, "dtype": {"type": "DT_FLOAT"}}}, {"name": "PartitionedCall/model/tf.math.add_8/Add/y", "op": "Const", "attr": {"dtype": {"type": "DT_FLOAT"}, "value": {"tensor": {"dtype": "DT_FLOAT", "tensorShape": {"dim": [{"size": "64"}]}}}}}, {"name": "PartitionedCall/model/tf.nn.convolution_5/convolution_internal/filters", "op": "Const", "attr": {"value": {"tensor": {"dtype": "DT_FLOAT", "tensorShape": {"dim": [{"size": "3"}, {"size": "3"}, {"size": "32"}, {"size": "32"}]}}}, "dtype": {"type": "DT_FLOAT"}}}, {"name": "PartitionedCall/model/tf.math.add_5/Add/y", "op": "Const", "attr": {"value": {"tensor": {"dtype": "DT_FLOAT", "tensorShape": {"dim": [{"size": "32"}]}}}, "dtype": {"type": "DT_FLOAT"}}}, {"name": "PartitionedCall/model/tf.nn.convolution_4/convolution_internal/filters", "op": "Const", "attr": {"value": {"tensor": {"dtype": "DT_FLOAT", "tensorShape": {"dim": [{"size": "3"}, {"size": "3"}, {"size": "32"}, {"size": "32"}]}}}, "dtype": {"type": "DT_FLOAT"}}}, {"name": "PartitionedCall/model/tf.math.add_4/Add/y", "op": "Const", "attr": {"dtype": {"type": "DT_FLOAT"}, "value": {"tensor": {"dtype": "DT_FLOAT", "tensorShape": {"dim": [{"size": "32"}]}}}}}, {"name": "PartitionedCall/model/tf.nn.convolution_3/convolution_internal/filters", "op": "Const", "attr": {"value": {"tensor": {"dtype": "DT_FLOAT", "tensorShape": {"dim": [{"size": "1"}, {"size": "1"}, {"size": "64"}, {"size": "32"}]}}}, "dtype": {"type": "DT_FLOAT"}}}, {"name": "PartitionedCall/model/tf.math.add_3/Add/y", "op": "Const", "attr": {"value": {"tensor": {"dtype": "DT_FLOAT", "tensorShape": {"dim": [{"size": "32"}]}}}, "dtype": {"type": "DT_FLOAT"}}}, {"name": "unknown", "op": "Const", "attr": {"dtype": {"type": "DT_INT32"}, "value": {"tensor": {"dtype": "DT_INT32", "tensorShape": {"dim": [{"size": "4"}, {"size": "2"}]}}}}}, {"name": "PartitionedCall/model/tf.nn.convolution/convolution_internal/filters", "op": "Const", "attr": {"dtype": {"type": "DT_FLOAT"}, "value": {"tensor": {"dtype": "DT_FLOAT", "tensorShape": {"dim": [{"size": "3"}, {"size": "3"}, {"size": "3"}, {"size": "32"}]}}}}}, {"name": "PartitionedCall/model/tf.math.add/Add/y", "op": "Const", "attr": {"value": {"tensor": {"dtype": "DT_FLOAT", "tensorShape": {"dim": [{"size": "32"}]}}}, "dtype": {"type": "DT_FLOAT"}}}, {"name": "unknown_0", "op": "Const", "attr": {"dtype": {"type": "DT_INT32"}, "value": {"tensor": {"dtype": "DT_INT32", "tensorShape": {"dim": [{"size": "4"}, {"size": "2"}]}}}}}, {"name": "PartitionedCall/model/tf.nn.convolution_1/convolution_internal/filters", "op": "Const", "attr": {"dtype": {"type": "DT_FLOAT"}, "value": {"tensor": {"dtype": "DT_FLOAT", "tensorShape": {"dim": [{"size": "3"}, {"size": "3"}, {"size": "32"}, {"size": "64"}]}}}}}, {"name": "PartitionedCall/model/tf.math.add_1/Add/y", "op": "Const", "attr": {"dtype": {"type": "DT_FLOAT"}, "value": {"tensor": {"dtype": "DT_FLOAT", "tensorShape": {"dim": [{"size": "64"}]}}}}}, {"name": "PartitionedCall/model/tf.nn.convolution_2/convolution_internal/filters", "op": "Const", "attr": {"dtype": {"type": "DT_FLOAT"}, "value": {"tensor": {"dtype": "DT_FLOAT", "tensorShape": {"dim": [{"size": "1"}, {"size": "1"}, {"size": "64"}, {"size": "32"}]}}}}}, {"name": "PartitionedCall/model/tf.math.add_2/Add/y", "op": "Const", "attr": {"value": {"tensor": {"dtype": "DT_FLOAT", "tensorShape": {"dim": [{"size": "32"}]}}}, "dtype": {"type": "DT_FLOAT"}}}, {"name": "PartitionedCall/model/tf.concat/concat/axis", "op": "Const", "attr": {"value": {"tensor": {"dtype": "DT_INT32", "tensorShape": {}}}, "dtype": {"type": "DT_INT32"}}}, {"name": "PartitionedCall/model/tf.nn.convolution_6/convolution_internal/filters", "op": "Const", "attr": {"value": {"tensor": {"dtype": "DT_FLOAT", "tensorShape": {"dim": [{"size": "1"}, {"size": "1"}, {"size": "128"}, {"size": "64"}]}}}, "dtype": {"type": "DT_FLOAT"}}}, {"name": "PartitionedCall/model/tf.math.add_6/Add/y", "op": "Const", "attr": {"dtype": {"type": "DT_FLOAT"}, "value": {"tensor": {"dtype": "DT_FLOAT", "tensorShape": {"dim": [{"size": "64"}]}}}}}, {"name": "PartitionedCall/model/tf.nn.convolution_7/convolution_internal/filters", "op": "Const", "attr": {"dtype": {"type": "DT_FLOAT"}, "value": {"tensor": {"dtype": "DT_FLOAT", "tensorShape": {"dim": [{"size": "1"}, {"size": "1"}, {"size": "64"}, {"size": "64"}]}}}}}, {"name": "PartitionedCall/model/tf.math.add_7/Add/y", "op": "Const", "attr": {"dtype": {"type": "DT_FLOAT"}, "value": {"tensor": {"dtype": "DT_FLOAT", "tensorShape": {"dim": [{"size": "64"}]}}}}}, {"name": "PartitionedCall/model/tf.concat_1/concat/axis", "op": "Const", "attr": {"value": {"tensor": {"dtype": "DT_INT32", "tensorShape": {}}}, "dtype": {"type": "DT_INT32"}}}, {"name": "PartitionedCall/model/tf.nn.convolution_11/convolution_internal/filters", "op": "Const", "attr": {"value": {"tensor": {"dtype": "DT_FLOAT", "tensorShape": {"dim": [{"size": "1"}, {"size": "1"}, {"size": "256"}, {"size": "128"}]}}}, "dtype": {"type": "DT_FLOAT"}}}, {"name": "PartitionedCall/model/tf.math.add_11/Add/y", "op": "Const", "attr": {"value": {"tensor": {"dtype": "DT_FLOAT", "tensorShape": {"dim": [{"size": "128"}]}}}, "dtype": {"type": "DT_FLOAT"}}}, {"name": "PartitionedCall/model/tf.nn.convolution_13/convolution_internal/filters", "op": "Const", "attr": {"dtype": {"type": "DT_FLOAT"}, "value": {"tensor": {"dtype": "DT_FLOAT", "tensorShape": {"dim": [{"size": "1"}, {"size": "1"}, {"size": "128"}, {"size": "128"}]}}}}}, {"name": "PartitionedCall/model/tf.math.add_13/Add/y", "op": "Const", "attr": {"value": {"tensor": {"dtype": "DT_FLOAT", "tensorShape": {"dim": [{"size": "128"}]}}}, "dtype": {"type": "DT_FLOAT"}}}, {"name": "PartitionedCall/model/tf.concat_2/concat/axis", "op": "Const", "attr": {"value": {"tensor": {"dtype": "DT_INT32", "tensorShape": {}}}, "dtype": {"type": "DT_INT32"}}}, {"name": "PartitionedCall/model/tf.nn.convolution_17/convolution_internal/filters", "op": "Const", "attr": {"value": {"tensor": {"dtype": "DT_FLOAT", "tensorShape": {"dim": [{"size": "1"}, {"size": "1"}, {"size": "512"}, {"size": "256"}]}}}, "dtype": {"type": "DT_FLOAT"}}}, {"name": "PartitionedCall/model/tf.math.add_17/Add/y", "op": "Const", "attr": {"dtype": {"type": "DT_FLOAT"}, "value": {"tensor": {"dtype": "DT_FLOAT", "tensorShape": {"dim": [{"size": "256"}]}}}}}, {"name": "PartitionedCall/model/tf.nn.convolution_19/convolution_internal/filters", "op": "Const", "attr": {"dtype": {"type": "DT_FLOAT"}, "value": {"tensor": {"dtype": "DT_FLOAT", "tensorShape": {"dim": [{"size": "1"}, {"size": "1"}, {"size": "256"}, {"size": "256"}]}}}}}, {"name": "PartitionedCall/model/tf.math.add_19/Add/y", "op": "Const", "attr": {"dtype": {"type": "DT_FLOAT"}, "value": {"tensor": {"dtype": "DT_FLOAT", "tensorShape": {"dim": [{"size": "256"}]}}}}}, {"name": "PartitionedCall/model/tf.concat_3/concat/axis", "op": "Const", "attr": {"dtype": {"type": "DT_INT32"}, "value": {"tensor": {"dtype": "DT_INT32", "tensorShape": {}}}}}, {"name": "PartitionedCall/model/tf.nn.convolution_23/convolution_internal/filters", "op": "Const", "attr": {"value": {"tensor": {"dtype": "DT_FLOAT", "tensorShape": {"dim": [{"size": "1"}, {"size": "1"}, {"size": "1024"}, {"size": "512"}]}}}, "dtype": {"type": "DT_FLOAT"}}}, {"name": "PartitionedCall/model/tf.math.add_23/Add/y", "op": "Const", "attr": {"value": {"tensor": {"dtype": "DT_FLOAT", "tensorShape": {"dim": [{"size": "512"}]}}}, "dtype": {"type": "DT_FLOAT"}}}, {"name": "PartitionedCall/model/tf.nn.convolution_24/convolution_internal/filters", "op": "Const", "attr": {"value": {"tensor": {"dtype": "DT_FLOAT", "tensorShape": {"dim": [{"size": "1"}, {"size": "1"}, {"size": "512"}, {"size": "256"}]}}}, "dtype": {"type": "DT_FLOAT"}}}, {"name": "PartitionedCall/model/tf.math.add_24/Add/y", "op": "Const", "attr": {"value": {"tensor": {"dtype": "DT_FLOAT", "tensorShape": {"dim": [{"size": "256"}]}}}, "dtype": {"type": "DT_FLOAT"}}}, {"name": "PartitionedCall/model/tf.concat_5/concat/axis", "op": "Const", "attr": {"dtype": {"type": "DT_INT32"}, "value": {"tensor": {"dtype": "DT_INT32", "tensorShape": {}}}}}, {"name": "PartitionedCall/model/tf.nn.convolution_27/convolution_internal/filters", "op": "Const", "attr": {"dtype": {"type": "DT_FLOAT"}, "value": {"tensor": {"dtype": "DT_FLOAT", "tensorShape": {"dim": [{"size": "1"}, {"size": "1"}, {"size": "512"}, {"size": "256"}]}}}}}, {"name": "PartitionedCall/model/tf.math.add_27/Add/y", "op": "Const", "attr": {"value": {"tensor": {"dtype": "DT_FLOAT", "tensorShape": {"dim": [{"size": "256"}]}}}, "dtype": {"type": "DT_FLOAT"}}}, {"name": "PartitionedCall/model/tf.concat_13/concat/axis", "op": "Const", "attr": {"dtype": {"type": "DT_INT32"}, "value": {"tensor": {"dtype": "DT_INT32", "tensorShape": {}}}}}, {"name": "PartitionedCall/model/tf.nn.convolution_51/convolution_internal/filters", "op": "Const", "attr": {"dtype": {"type": "DT_FLOAT"}, "value": {"tensor": {"dtype": "DT_FLOAT", "tensorShape": {"dim": [{"size": "1"}, {"size": "1"}, {"size": "512"}, {"size": "128"}]}}}}}, {"name": "PartitionedCall/model/tf.math.add_52/Add/y", "op": "Const", "attr": {"dtype": {"type": "DT_FLOAT"}, "value": {"tensor": {"dtype": "DT_FLOAT", "tensorShape": {"dim": [{"size": "128"}]}}}}}, {"name": "PartitionedCall/model/tf.concat_14/concat/axis", "op": "Const", "attr": {"value": {"tensor": {"dtype": "DT_INT32", "tensorShape": {}}}, "dtype": {"type": "DT_INT32"}}}, {"name": "PartitionedCall/model/tf.nn.convolution_55/convolution_internal/filters", "op": "Const", "attr": {"dtype": {"type": "DT_FLOAT"}, "value": {"tensor": {"dtype": "DT_FLOAT", "tensorShape": {"dim": [{"size": "1"}, {"size": "1"}, {"size": "512"}, {"size": "256"}]}}}}}, {"name": "PartitionedCall/model/tf.math.add_57/Add/y", "op": "Const", "attr": {"value": {"tensor": {"dtype": "DT_FLOAT", "tensorShape": {"dim": [{"size": "256"}]}}}, "dtype": {"type": "DT_FLOAT"}}}, {"name": "PartitionedCall/model/tf.nn.convolution_56/convolution_internal/filters", "op": "Const", "attr": {"value": {"tensor": {"dtype": "DT_FLOAT", "tensorShape": {"dim": [{"size": "3"}, {"size": "3"}, {"size": "256"}, {"size": "512"}]}}}, "dtype": {"type": "DT_FLOAT"}}}, {"name": "PartitionedCall/model/tf.math.add_58/Add/y", "op": "Const", "attr": {"dtype": {"type": "DT_FLOAT"}, "value": {"tensor": {"dtype": "DT_FLOAT", "tensorShape": {"dim": [{"size": "512"}]}}}}}, {"name": "PartitionedCall/model/tf.nn.convolution_57/convolution_internal/filters", "op": "Const", "attr": {"dtype": {"type": "DT_FLOAT"}, "value": {"tensor": {"dtype": "DT_FLOAT", "tensorShape": {"dim": [{"size": "1"}, {"size": "1"}, {"size": "512"}, {"size": "255"}]}}}}}, {"name": "PartitionedCall/model/tf.math.add_59/Add/y", "op": "Const", "attr": {"value": {"tensor": {"dtype": "DT_FLOAT", "tensorShape": {"dim": [{"size": "255"}]}}}, "dtype": {"type": "DT_FLOAT"}}}, {"name": "PartitionedCall/model/tf.compat.v1.transpose_6/transpose/perm", "op": "Const", "attr": {"dtype": {"type": "DT_INT32"}, "value": {"tensor": {"dtype": "DT_INT32", "tensorShape": {"dim": [{"size": "4"}]}}}}}, {"name": "PartitionedCall/model/tf.reshape_4/Reshape/shape", "op": "Const", "attr": {"dtype": {"type": "DT_INT32"}, "value": {"tensor": {"dtype": "DT_INT32", "tensorShape": {"dim": [{"size": "5"}]}}}}}, {"name": "PartitionedCall/model/tf.compat.v1.transpose_7/transpose/perm", "op": "Const", "attr": {"dtype": {"type": "DT_INT32"}, "value": {"tensor": {"dtype": "DT_INT32", "tensorShape": {"dim": [{"size": "5"}]}}}}}, {"name": "PartitionedCall/model/tf.split_2/Const", "op": "Const", "attr": {"value": {"tensor": {"dtype": "DT_INT32", "tensorShape": {"dim": [{"size": "3"}]}}}, "dtype": {"type": "DT_INT32"}}}, {"name": "PartitionedCall/model/tf.split_2/split/split_dim", "op": "Const", "attr": {"value": {"tensor": {"dtype": "DT_INT32", "tensorShape": {}}}, "dtype": {"type": "DT_INT32"}}}, {"name": "PartitionedCall/model/tf.concat_16/concat/axis", "op": "Const", "attr": {"value": {"tensor": {"dtype": "DT_INT32", "tensorShape": {}}}, "dtype": {"type": "DT_INT32"}}}, {"name": "PartitionedCall/model/tf.reshape_5/Reshape/shape", "op": "Const", "attr": {"dtype": {"type": "DT_INT32"}, "value": {"tensor": {"dtype": "DT_INT32", "tensorShape": {"dim": [{"size": "3"}]}}}}}, {"name": "PartitionedCall/model/tf.concat_17/concat/axis", "op": "Const", "attr": {"dtype": {"type": "DT_INT32"}, "value": {"tensor": {"dtype": "DT_INT32", "tensorShape": {}}}}}, {"name": "unknown_9", "op": "Const", "attr": {"dtype": {"type": "DT_INT64"}, "value": {"tensor": {"dtype": "DT_INT64", "tensorShape": {"dim": [{"size": "3"}]}}}}}, {"name": "unknown_10", "op": "Const", "attr": {"value": {"tensor": {"dtype": "DT_INT64", "tensorShape": {"dim": [{"size": "3"}]}}}, "dtype": {"type": "DT_INT64"}}}, {"name": "unknown_11", "op": "Const", "attr": {"dtype": {"type": "DT_INT64"}, "value": {"tensor": {"dtype": "DT_INT64", "tensorShape": {"dim": [{"size": "3"}]}}}}}, {"name": "PartitionedCall/model/tf.compat.v1.transpose_9/transpose/perm", "op": "Const", "attr": {"dtype": {"type": "DT_INT32"}, "value": {"tensor": {"dtype": "DT_INT32", "tensorShape": {"dim": [{"size": "3"}]}}}}}, {"name": "PartitionedCall/model/tf.compat.v1.gather_9/GatherV2/indices", "op": "Const", "attr": {"dtype": {"type": "DT_INT32"}, "value": {"tensor": {"dtype": "DT_INT32", "tensorShape": {"dim": [{"size": "1"}]}}}}}, {"name": "PartitionedCall/model/tf.compat.v1.gather_9/GatherV2/axis", "op": "Const", "attr": {"dtype": {"type": "DT_INT32"}, "value": {"tensor": {"dtype": "DT_INT32", "tensorShape": {}}}}}, {"name": "PartitionedCall/model/tf.compat.v1.gather_89/GatherV2/indices", "op": "Const", "attr": {"value": {"tensor": {"dtype": "DT_INT32", "tensorShape": {"dim": [{"size": "1"}]}}}, "dtype": {"type": "DT_INT32"}}}, {"name": "PartitionedCall/model/tf.compat.v1.gather_89/GatherV2/axis", "op": "Const", "attr": {"value": {"tensor": {"dtype": "DT_INT32", "tensorShape": {}}}, "dtype": {"type": "DT_INT32"}}}, {"name": "unknown_19", "op": "Const", "attr": {"dtype": {"type": "DT_INT32"}, "value": {"tensor": {"dtype": "DT_INT32", "tensorShape": {}}}}}, {"name": "unknown_17", "op": "Const", "attr": {"dtype": {"type": "DT_FLOAT"}, "value": {"tensor": {"dtype": "DT_FLOAT", "tensorShape": {}}}}}, {"name": "unknown_18", "op": "Const", "attr": {"value": {"tensor": {"dtype": "DT_FLOAT", "tensorShape": {}}}, "dtype": {"type": "DT_FLOAT"}}}, {"name": "PartitionedCall/model/tf.compat.v1.transpose_89/transpose/perm", "op": "Const", "attr": {"dtype": {"type": "DT_INT32"}, "value": {"tensor": {"dtype": "DT_INT32", "tensorShape": {"dim": [{"size": "2"}]}}}}}, {"name": "unknown_333", "op": "Const", "attr": {"value": {"tensor": {"dtype": "DT_INT64", "tensorShape": {}}}, "dtype": {"type": "DT_INT64"}}}, {"name": "unknown_332", "op": "Const", "attr": {"value": {"tensor": {"dtype": "DT_INT32", "tensorShape": {"dim": [{"size": "2"}, {"size": "2"}]}}}, "dtype": {"type": "DT_INT32"}}}, {"name": "unknown_335", "op": "Const", "attr": {"dtype": {"type": "DT_INT64"}, "value": {"tensor": {"dtype": "DT_INT64", "tensorShape": {}}}}}, {"name": "PartitionedCall/model/tf.concat_97/concat/axis", "op": "Const", "attr": {"dtype": {"type": "DT_INT32"}, "value": {"tensor": {"dtype": "DT_INT32", "tensorShape": {}}}}}, {"name": "unknown_336", "op": "Const", "attr": {"dtype": {"type": "DT_INT64"}, "value": {"tensor": {"dtype": "DT_INT64", "tensorShape": {"dim": [{"size": "3"}]}}}}}, {"name": "PartitionedCall/model/tf.reshape_10/Reshape/shape", "op": "Const", "attr": {"value": {"tensor": {"dtype": "DT_INT32", "tensorShape": {"dim": [{"size": "2"}]}}}, "dtype": {"type": "DT_INT32"}}}, {"name": "PartitionedCall/model/tf.strided_slice_3/StridedSlice/begin", "op": "Const", "attr": {"dtype": {"type": "DT_INT64"}, "value": {"tensor": {"dtype": "DT_INT64", "tensorShape": {"dim": [{"size": "2"}]}}}}}, {"name": "PartitionedCall/model/tf.strided_slice_3/StridedSlice/end", "op": "Const", "attr": {"value": {"tensor": {"dtype": "DT_INT64", "tensorShape": {"dim": [{"size": "2"}]}}}, "dtype": {"type": "DT_INT64"}}}, {"name": "PartitionedCall/model/tf.strided_slice_3/ones_like", "op": "Const", "attr": {"dtype": {"type": "DT_INT64"}, "value": {"tensor": {"dtype": "DT_INT64", "tensorShape": {"dim": [{"size": "2"}]}}}}}, {"name": "images", "op": "Placeholder", "attr": {"shape": {"shape": {"dim": [{"size": "1"}, {"size": "480"}, {"size": "640"}, {"size": "3"}]}}, "dtype": {"type": "DT_FLOAT"}}}, {"name": "PartitionedCall/model/tf.compat.v1.pad/Pad", "op": "Pad", "input": ["images", "unknown"], "attr": {"Tpaddings": {"type": "DT_INT32"}, "T": {"type": "DT_FLOAT"}}}, {"name": "PartitionedCall/model/tf.nn.convolution/convolution", "op": "Conv2D", "input": ["PartitionedCall/model/tf.compat.v1.pad/Pad", "PartitionedCall/model/tf.nn.convolution/convolution_internal/filters"], "device": "/device:CPU:0", "attr": {"data_format": {"s": "TkhXQw=="}, "padding": {"s": "VkFMSUQ="}, "dilations": {"list": {"i": ["1", "1", "1", "1"]}}, "T": {"type": "DT_FLOAT"}, "strides": {"list": {"i": ["1", "2", "2", "1"]}}, "explicit_paddings": {"list": {}}, "use_cudnn_on_gpu": {"b": true}}}, {"name": "PartitionedCall/model/tf.math.add/Add", "op": "AddV2", "input": ["PartitionedCall/model/tf.nn.convolution/convolution", "PartitionedCall/model/tf.math.add/Add/y"], "attr": {"T": {"type": "DT_FLOAT"}}}, {"name": "PartitionedCall/model/tf.nn.leaky_relu/LeakyRelu", "op": "LeakyRelu", "input": ["PartitionedCall/model/tf.math.add/Add"], "attr": {"alpha": {"f": 0.1}, "T": {"type": "DT_FLOAT"}}}, {"name": "PartitionedCall/model/tf.compat.v1.pad_1/Pad", "op": "Pad", "input": ["PartitionedCall/model/tf.nn.leaky_relu/LeakyRelu", "unknown_0"], "attr": {"Tpaddings": {"type": "DT_INT32"}, "T": {"type": "DT_FLOAT"}}}, {"name": "PartitionedCall/model/tf.nn.convolution_1/convolution", "op": "Conv2D", "input": ["PartitionedCall/model/tf.compat.v1.pad_1/Pad", "PartitionedCall/model/tf.nn.convolution_1/convolution_internal/filters"], "device": "/device:CPU:0", "attr": {"padding": {"s": "VkFMSUQ="}, "dilations": {"list": {"i": ["1", "1", "1", "1"]}}, "T": {"type": "DT_FLOAT"}, "explicit_paddings": {"list": {}}, "data_format": {"s": "TkhXQw=="}, "strides": {"list": {"i": ["1", "2", "2", "1"]}}, "use_cudnn_on_gpu": {"b": true}}}, {"name": "PartitionedCall/model/tf.math.add_1/Add", "op": "AddV2", "input": ["PartitionedCall/model/tf.nn.convolution_1/convolution", "PartitionedCall/model/tf.math.add_1/Add/y"], "attr": {"T": {"type": "DT_FLOAT"}}}, {"name": "PartitionedCall/model/tf.nn.leaky_relu_1/LeakyRelu", "op": "LeakyRelu", "input": ["PartitionedCall/model/tf.math.add_1/Add"], "attr": {"alpha": {"f": 0.1}, "T": {"type": "DT_FLOAT"}}}, {"name": "PartitionedCall/model/tf.nn.convolution_3/convolution", "op": "Conv2D", "input": ["PartitionedCall/model/tf.nn.leaky_relu_1/LeakyRelu", "PartitionedCall/model/tf.nn.convolution_3/convolution_internal/filters"], "device": "/device:CPU:0", "attr": {"dilations": {"list": {"i": ["1", "1", "1", "1"]}}, "explicit_paddings": {"list": {}}, "use_cudnn_on_gpu": {"b": true}, "padding": {"s": "U0FNRQ=="}, "strides": {"list": {"i": ["1", "1", "1", "1"]}}, "T": {"type": "DT_FLOAT"}, "data_format": {"s": "TkhXQw=="}}}, {"name": "PartitionedCall/model/tf.nn.convolution_2/convolution", "op": "Conv2D", "input": ["PartitionedCall/model/tf.nn.leaky_relu_1/LeakyRelu", "PartitionedCall/model/tf.nn.convolution_2/convolution_internal/filters"], "device": "/device:CPU:0", "attr": {"data_format": {"s": "TkhXQw=="}, "strides": {"list": {"i": ["1", "1", "1", "1"]}}, "T": {"type": "DT_FLOAT"}, "explicit_paddings": {"list": {}}, "use_cudnn_on_gpu": {"b": true}, "dilations": {"list": {"i": ["1", "1", "1", "1"]}}, "padding": {"s": "U0FNRQ=="}}}, {"name": "PartitionedCall/model/tf.math.add_3/Add", "op": "AddV2", "input": ["PartitionedCall/model/tf.nn.convolution_3/convolution", "PartitionedCall/model/tf.math.add_3/Add/y"], "attr": {"T": {"type": "DT_FLOAT"}}}, {"name": "PartitionedCall/model/tf.math.add_2/Add", "op": "AddV2", "input": ["PartitionedCall/model/tf.nn.convolution_2/convolution", "PartitionedCall/model/tf.math.add_2/Add/y"], "attr": {"T": {"type": "DT_FLOAT"}}}, {"name": "PartitionedCall/model/tf.nn.leaky_relu_3/LeakyRelu", "op": "LeakyRelu", "input": ["PartitionedCall/model/tf.math.add_3/Add"], "attr": {"T": {"type": "DT_FLOAT"}, "alpha": {"f": 0.1}}}, {"name": "PartitionedCall/model/tf.nn.leaky_relu_2/LeakyRelu", "op": "LeakyRelu", "input": ["PartitionedCall/model/tf.math.add_2/Add"], "attr": {"T": {"type": "DT_FLOAT"}, "alpha": {"f": 0.1}}}, {"name": "PartitionedCall/model/tf.nn.convolution_4/convolution", "op": "Conv2D", "input": ["PartitionedCall/model/tf.nn.leaky_relu_3/LeakyRelu", "PartitionedCall/model/tf.nn.convolution_4/convolution_internal/filters"], "device": "/device:CPU:0", "attr": {"data_format": {"s": "TkhXQw=="}, "explicit_paddings": {"list": {}}, "use_cudnn_on_gpu": {"b": true}, "strides": {"list": {"i": ["1", "1", "1", "1"]}}, "padding": {"s": "U0FNRQ=="}, "T": {"type": "DT_FLOAT"}, "dilations": {"list": {"i": ["1", "1", "1", "1"]}}}}, {"name": "PartitionedCall/model/tf.math.add_4/Add", "op": "AddV2", "input": ["PartitionedCall/model/tf.nn.convolution_4/convolution", "PartitionedCall/model/tf.math.add_4/Add/y"], "attr": {"T": {"type": "DT_FLOAT"}}}, {"name": "PartitionedCall/model/tf.nn.leaky_relu_4/LeakyRelu", "op": "LeakyRelu", "input": ["PartitionedCall/model/tf.math.add_4/Add"], "attr": {"T": {"type": "DT_FLOAT"}, "alpha": {"f": 0.1}}}, {"name": "PartitionedCall/model/tf.nn.convolution_5/convolution", "op": "Conv2D", "input": ["PartitionedCall/model/tf.nn.leaky_relu_4/LeakyRelu", "PartitionedCall/model/tf.nn.convolution_5/convolution_internal/filters"], "device": "/device:CPU:0", "attr": {"use_cudnn_on_gpu": {"b": true}, "T": {"type": "DT_FLOAT"}, "padding": {"s": "U0FNRQ=="}, "strides": {"list": {"i": ["1", "1", "1", "1"]}}, "explicit_paddings": {"list": {}}, "dilations": {"list": {"i": ["1", "1", "1", "1"]}}, "data_format": {"s": "TkhXQw=="}}}, {"name": "PartitionedCall/model/tf.math.add_5/Add", "op": "AddV2", "input": ["PartitionedCall/model/tf.nn.convolution_5/convolution", "PartitionedCall/model/tf.math.add_5/Add/y"], "attr": {"T": {"type": "DT_FLOAT"}}}, {"name": "PartitionedCall/model/tf.nn.leaky_relu_5/LeakyRelu", "op": "LeakyRelu", "input": ["PartitionedCall/model/tf.math.add_5/Add"], "attr": {"T": {"type": "DT_FLOAT"}, "alpha": {"f": 0.1}}}, {"name": "PartitionedCall/model/tf.concat/concat", "op": "ConcatV2", "input": ["PartitionedCall/model/tf.nn.leaky_relu_5/LeakyRelu", "PartitionedCall/model/tf.nn.leaky_relu_4/LeakyRelu", "PartitionedCall/model/tf.nn.leaky_relu_3/LeakyRelu", "PartitionedCall/model/tf.nn.leaky_relu_2/LeakyRelu", "PartitionedCall/model/tf.concat/concat/axis"], "attr": {"Tidx": {"type": "DT_INT32"}, "N": {"i": "4"}, "T": {"type": "DT_FLOAT"}}}, {"name": "PartitionedCall/model/tf.nn.convolution_6/convolution", "op": "Conv2D", "input": ["PartitionedCall/model/tf.concat/concat", "PartitionedCall/model/tf.nn.convolution_6/convolution_internal/filters"], "device": "/device:CPU:0", "attr": {"use_cudnn_on_gpu": {"b": true}, "dilations": {"list": {"i": ["1", "1", "1", "1"]}}, "data_format": {"s": "TkhXQw=="}, "T": {"type": "DT_FLOAT"}, "strides": {"list": {"i": ["1", "1", "1", "1"]}}, "padding": {"s": "U0FNRQ=="}, "explicit_paddings": {"list": {}}}}, {"name": "PartitionedCall/model/tf.math.add_6/Add", "op": "AddV2", "input": ["PartitionedCall/model/tf.nn.convolution_6/convolution", "PartitionedCall/model/tf.math.add_6/Add/y"], "attr": {"T": {"type": "DT_FLOAT"}}}, {"name": "PartitionedCall/model/tf.nn.leaky_relu_6/LeakyRelu", "op": "LeakyRelu", "input": ["PartitionedCall/model/tf.math.add_6/Add"], "attr": {"alpha": {"f": 0.1}, "T": {"type": "DT_FLOAT"}}}, {"name": "PartitionedCall/model/tf.nn.max_pool2d/MaxPool2d", "op": "MaxPool", "input": ["PartitionedCall/model/tf.nn.leaky_relu_6/LeakyRelu"], "attr": {"T": {"type": "DT_FLOAT"}, "data_format": {"s": "TkhXQw=="}, "explicit_paddings": {"list": {}}, "padding": {"s": "VkFMSUQ="}, "strides": {"list": {"i": ["1", "2", "2", "1"]}}, "ksize": {"list": {"i": ["1", "2", "2", "1"]}}}}, {"name": "PartitionedCall/model/tf.nn.convolution_8/convolution", "op": "Conv2D", "input": ["PartitionedCall/model/tf.nn.max_pool2d/MaxPool2d", "PartitionedCall/model/tf.nn.convolution_8/convolution_internal/filters"], "device": "/device:CPU:0", "attr": {"T": {"type": "DT_FLOAT"}, "use_cudnn_on_gpu": {"b": true}, "explicit_paddings": {"list": {}}, "data_format": {"s": "TkhXQw=="}, "padding": {"s": "U0FNRQ=="}, "strides": {"list": {"i": ["1", "1", "1", "1"]}}, "dilations": {"list": {"i": ["1", "1", "1", "1"]}}}}, {"name": "PartitionedCall/model/tf.nn.convolution_7/convolution", "op": "Conv2D", "input": ["PartitionedCall/model/tf.nn.max_pool2d/MaxPool2d", "PartitionedCall/model/tf.nn.convolution_7/convolution_internal/filters"], "device": "/device:CPU:0", "attr": {"padding": {"s": "U0FNRQ=="}, "T": {"type": "DT_FLOAT"}, "strides": {"list": {"i": ["1", "1", "1", "1"]}}, "dilations": {"list": {"i": ["1", "1", "1", "1"]}}, "explicit_paddings": {"list": {}}, "use_cudnn_on_gpu": {"b": true}, "data_format": {"s": "TkhXQw=="}}}, {"name": "PartitionedCall/model/tf.math.add_8/Add", "op": "AddV2", "input": ["PartitionedCall/model/tf.nn.convolution_8/convolution", "PartitionedCall/model/tf.math.add_8/Add/y"], "attr": {"T": {"type": "DT_FLOAT"}}}, {"name": "PartitionedCall/model/tf.math.add_7/Add", "op": "AddV2", "input": ["PartitionedCall/model/tf.nn.convolution_7/convolution", "PartitionedCall/model/tf.math.add_7/Add/y"], "attr": {"T": {"type": "DT_FLOAT"}}}, {"name": "PartitionedCall/model/tf.nn.leaky_relu_8/LeakyRelu", "op": "LeakyRelu", "input": ["PartitionedCall/model/tf.math.add_8/Add"], "attr": {"T": {"type": "DT_FLOAT"}, "alpha": {"f": 0.1}}}, {"name": "PartitionedCall/model/tf.nn.leaky_relu_7/LeakyRelu", "op": "LeakyRelu", "input": ["PartitionedCall/model/tf.math.add_7/Add"], "attr": {"T": {"type": "DT_FLOAT"}, "alpha": {"f": 0.1}}}, {"name": "PartitionedCall/model/tf.nn.convolution_9/convolution", "op": "Conv2D", "input": ["PartitionedCall/model/tf.nn.leaky_relu_8/LeakyRelu", "PartitionedCall/model/tf.nn.convolution_9/convolution_internal/filters"], "device": "/device:CPU:0", "attr": {"use_cudnn_on_gpu": {"b": true}, "data_format": {"s": "TkhXQw=="}, "T": {"type": "DT_FLOAT"}, "strides": {"list": {"i": ["1", "1", "1", "1"]}}, "padding": {"s": "U0FNRQ=="}, "dilations": {"list": {"i": ["1", "1", "1", "1"]}}, "explicit_paddings": {"list": {}}}}, {"name": "PartitionedCall/model/tf.math.add_9/Add", "op": "AddV2", "input": ["PartitionedCall/model/tf.nn.convolution_9/convolution", "PartitionedCall/model/tf.math.add_9/Add/y"], "attr": {"T": {"type": "DT_FLOAT"}}}, {"name": "PartitionedCall/model/tf.nn.leaky_relu_9/LeakyRelu", "op": "LeakyRelu", "input": ["PartitionedCall/model/tf.math.add_9/Add"], "attr": {"alpha": {"f": 0.1}, "T": {"type": "DT_FLOAT"}}}, {"name": "PartitionedCall/model/tf.nn.convolution_10/convolution", "op": "Conv2D", "input": ["PartitionedCall/model/tf.nn.leaky_relu_9/LeakyRelu", "PartitionedCall/model/tf.nn.convolution_10/convolution_internal/filters"], "device": "/device:CPU:0", "attr": {"strides": {"list": {"i": ["1", "1", "1", "1"]}}, "data_format": {"s": "TkhXQw=="}, "use_cudnn_on_gpu": {"b": true}, "explicit_paddings": {"list": {}}, "padding": {"s": "U0FNRQ=="}, "dilations": {"list": {"i": ["1", "1", "1", "1"]}}, "T": {"type": "DT_FLOAT"}}}, {"name": "PartitionedCall/model/tf.math.add_10/Add", "op": "AddV2", "input": ["PartitionedCall/model/tf.nn.convolution_10/convolution", "PartitionedCall/model/tf.math.add_10/Add/y"], "attr": {"T": {"type": "DT_FLOAT"}}}, {"name": "PartitionedCall/model/tf.nn.leaky_relu_10/LeakyRelu", "op": "LeakyRelu", "input": ["PartitionedCall/model/tf.math.add_10/Add"], "attr": {"alpha": {"f": 0.1}, "T": {"type": "DT_FLOAT"}}}, {"name": "PartitionedCall/model/tf.concat_1/concat", "op": "ConcatV2", "input": ["PartitionedCall/model/tf.nn.leaky_relu_10/LeakyRelu", "PartitionedCall/model/tf.nn.leaky_relu_9/LeakyRelu", "PartitionedCall/model/tf.nn.leaky_relu_8/LeakyRelu", "PartitionedCall/model/tf.nn.leaky_relu_7/LeakyRelu", "PartitionedCall/model/tf.concat_1/concat/axis"], "attr": {"T": {"type": "DT_FLOAT"}, "N": {"i": "4"}, "Tidx": {"type": "DT_INT32"}}}, {"name": "PartitionedCall/model/tf.nn.convolution_11/convolution", "op": "Conv2D", "input": ["PartitionedCall/model/tf.concat_1/concat", "PartitionedCall/model/tf.nn.convolution_11/convolution_internal/filters"], "device": "/device:CPU:0", "attr": {"dilations": {"list": {"i": ["1", "1", "1", "1"]}}, "explicit_paddings": {"list": {}}, "strides": {"list": {"i": ["1", "1", "1", "1"]}}, "T": {"type": "DT_FLOAT"}, "use_cudnn_on_gpu": {"b": true}, "data_format": {"s": "TkhXQw=="}, "padding": {"s": "U0FNRQ=="}}}, {"name": "PartitionedCall/model/tf.math.add_11/Add", "op": "AddV2", "input": ["PartitionedCall/mo…
 [1], "dtype": "int32"}, {"name": "PartitionedCall/model/tf.compat.v1.gather_55/GatherV2/axis", "shape": [], "dtype": "int32"}, {"name": "PartitionedCall/model/tf.compat.v1.transpose_55/transpose/perm", "shape": [2], "dtype": "int32"}, {"name": "unknown_202", "shape": [], "dtype": "int32"}, {"name": "unknown_201", "shape": [2, 2], "dtype": "int32"}, {"name": "unknown_207", "shape": [], "dtype": "int32"}, {"name": "PartitionedCall/model/tf.compat.v1.gather_56/GatherV2/indices", "shape": [1], "dtype": "int32"}, {"name": "PartitionedCall/model/tf.compat.v1.gather_56/GatherV2/axis", "shape": [], "dtype": "int32"}, {"name": "PartitionedCall/model/tf.compat.v1.transpose_56/transpose/perm", "shape": [2], "dtype": "int32"}, {"name": "unknown_206", "shape": [], "dtype": "int32"}, {"name": "unknown_205", "shape": [2, 2], "dtype": "int32"}, {"name": "unknown_211", "shape": [], "dtype": "int32"}, {"name": "PartitionedCall/model/tf.compat.v1.gather_57/GatherV2/indices", "shape": [1], "dtype": "int32"}, {"name": "PartitionedCall/model/tf.compat.v1.gather_57/GatherV2/axis", "shape": [], "dtype": "int32"}, {"name": "PartitionedCall/model/tf.compat.v1.transpose_57/transpose/perm", "shape": [2], "dtype": "int32"}, {"name": "unknown_210", "shape": [], "dtype": "int32"}, {"name": "unknown_209", "shape": [2, 2], "dtype": "int32"}, {"name": "unknown_215", "shape": [], "dtype": "int32"}, {"name": "PartitionedCall/model/tf.compat.v1.gather_58/GatherV2/indices", "shape": [1], "dtype": "int32"}, {"name": "PartitionedCall/model/tf.compat.v1.gather_58/GatherV2/axis", "shape": [], "dtype": "int32"}, {"name": "PartitionedCall/model/tf.compat.v1.transpose_58/transpose/perm", "shape": [2], "dtype": "int32"}, {"name": "unknown_214", "shape": [], "dtype": "int32"}, {"name": "unknown_213", "shape": [2, 2], "dtype": "int32"}, {"name": "unknown_219", "shape": [], "dtype": "int32"}, {"name": "PartitionedCall/model/tf.compat.v1.gather_59/GatherV2/indices", "shape": [1], "dtype": "int32"}, {"name": "PartitionedCall/model/tf.compat.v1.gather_59/GatherV2/axis", "shape": [], "dtype": "int32"}, {"name": "PartitionedCall/model/tf.compat.v1.transpose_59/transpose/perm", "shape": [2], "dtype": "int32"}, {"name": "unknown_218", "shape": [], "dtype": "int32"}, {"name": "unknown_217", "shape": [2, 2], "dtype": "int32"}, {"name": "unknown_223", "shape": [], "dtype": "int32"}, {"name": "PartitionedCall/model/tf.compat.v1.gather_60/GatherV2/indices", "shape": [1], "dtype": "int32"}, {"name": "PartitionedCall/model/tf.compat.v1.gather_60/GatherV2/axis", "shape": [], "dtype": "int32"}, {"name": "PartitionedCall/model/tf.compat.v1.transpose_60/transpose/perm", "shape": [2], "dtype": "int32"}, {"name": "unknown_222", "shape": [], "dtype": "int32"}, {"name": "unknown_221", "shape": [2, 2], "dtype": "int32"}, {"name": "unknown_227", "shape": [], "dtype": "int32"}, {"name": "PartitionedCall/model/tf.compat.v1.gather_61/GatherV2/indices", "shape": [1], "dtype": "int32"}, {"name": "PartitionedCall/model/tf.compat.v1.gather_61/GatherV2/axis", "shape": [], "dtype": "int32"}, {"name": "PartitionedCall/model/tf.compat.v1.transpose_61/transpose/perm", "shape": [2], "dtype": "int32"}, {"name": "unknown_226", "shape": [], "dtype": "int32"}, {"name": "unknown_225", "shape": [2, 2], "dtype": "int32"}, {"name": "unknown_231", "shape": [], "dtype": "int32"}, {"name": "PartitionedCall/model/tf.compat.v1.gather_62/GatherV2/indices", "shape": [1], "dtype": "int32"}, {"name": "PartitionedCall/model/tf.compat.v1.gather_62/GatherV2/axis", "shape": [], "dtype": "int32"}, {"name": "PartitionedCall/model/tf.compat.v1.transpose_62/transpose/perm", "shape": [2], "dtype": "int32"}, {"name": "unknown_230", "shape": [], "dtype": "int32"}, {"name": "unknown_229", "shape": [2, 2], "dtype": "int32"}, {"name": "unknown_235", "shape": [], "dtype": "int32"}, {"name": "PartitionedCall/model/tf.compat.v1.gather_63/GatherV2/indices", "shape": [1], "dtype": "int32"}, {"name": "PartitionedCall/model/tf.compat.v1.gather_63/GatherV2/axis", "shape": [], "dtype": "int32"}, {"name": "PartitionedCall/model/tf.compat.v1.transpose_63/transpose/perm", "shape": [2], "dtype": "int32"}, {"name": "unknown_234", "shape": [], "dtype": "int32"}, {"name": "unknown_233", "shape": [2, 2], "dtype": "int32"}, {"name": "unknown_239", "shape": [], "dtype": "int32"}, {"name": "PartitionedCall/model/tf.compat.v1.gather_64/GatherV2/indices", "shape": [1], "dtype": "int32"}, {"name": "PartitionedCall/model/tf.compat.v1.gather_64/GatherV2/axis", "shape": [], "dtype": "int32"}, {"name": "PartitionedCall/model/tf.compat.v1.transpose_64/transpose/perm", "shape": [2], "dtype": "int32"}, {"name": "unknown_238", "shape": [], "dtype": "int32"}, {"name": "unknown_237", "shape": [2, 2], "dtype": "int32"}, {"name": "unknown_243", "shape": [], "dtype": "int32"}, {"name": "PartitionedCall/model/tf.compat.v1.gather_65/GatherV2/indices", "shape": [1], "dtype": "int32"}, {"name": "PartitionedCall/model/tf.compat.v1.gather_65/GatherV2/axis", "shape": [], "dtype": "int32"}, {"name": "PartitionedCall/model/tf.compat.v1.transpose_65/transpose/perm", "shape": [2], "dtype": "int32"}, {"name": "unknown_242", "shape": [], "dtype": "int32"}, {"name": "unknown_241", "shape": [2, 2], "dtype": "int32"}, {"name": "unknown_247", "shape": [], "dtype": "int32"}, {"name": "PartitionedCall/model/tf.compat.v1.gather_66/GatherV2/indices", "shape": [1], "dtype": "int32"}, {"name": "PartitionedCall/model/tf.compat.v1.gather_66/GatherV2/axis", "shape": [], "dtype": "int32"}, {"name": "PartitionedCall/model/tf.compat.v1.transpose_66/transpose/perm", "shape": [2], "dtype": "int32"}, {"name": "unknown_246", "shape": [], "dtype": "int32"}, {"name": "unknown_245", "shape": [2, 2], "dtype": "int32"}, {"name": "unknown_251", "shape": [], "dtype": "int32"}, {"name": "PartitionedCall/model/tf.compat.v1.gather_67/GatherV2/indices", "shape": [1], "dtype": "int32"}, {"name": "PartitionedCall/model/tf.compat.v1.gather_67/GatherV2/axis", "shape": [], "dtype": "int32"}, {"name": "PartitionedCall/model/tf.compat.v1.transpose_67/transpose/perm", "shape": [2], "dtype": "int32"}, {"name": "unknown_250", "shape": [], "dtype": "int32"}, {"name": "unknown_249", "shape": [2, 2], "dtype": "int32"}, {"name": "unknown_255", "shape": [], "dtype": "int32"}, {"name": "PartitionedCall/model/tf.compat.v1.gather_68/GatherV2/indices", "shape": [1], "dtype": "int32"}, {"name": "PartitionedCall/model/tf.compat.v1.gather_68/GatherV2/axis", "shape": [], "dtype": "int32"}, {"name": "PartitionedCall/model/tf.compat.v1.transpose_68/transpose/perm", "shape": [2], "dtype": "int32"}, {"name": "unknown_254", "shape": [], "dtype": "int32"}, {"name": "unknown_253", "shape": [2, 2], "dtype": "int32"}, {"name": "unknown_259", "shape": [], "dtype": "int32"}, {"name": "PartitionedCall/model/tf.compat.v1.gather_69/GatherV2/indices", "shape": [1], "dtype": "int32"}, {"name": "PartitionedCall/model/tf.compat.v1.gather_69/GatherV2/axis", "shape": [], "dtype": "int32"}, {"name": "PartitionedCall/model/tf.compat.v1.transpose_69/transpose/perm", "shape": [2], "dtype": "int32"}, {"name": "unknown_258", "shape": [], "dtype": "int32"}, {"name": "unknown_257", "shape": [2, 2], "dtype": "int32"}, {"name": "unknown_263", "shape": [], "dtype": "int32"}, {"name": "PartitionedCall/model/tf.compat.v1.gather_70/GatherV2/indices", "shape": [1], "dtype": "int32"}, {"name": "PartitionedCall/model/tf.compat.v1.gather_70/GatherV2/axis", "shape": [], "dtype": "int32"}, {"name": "PartitionedCall/model/tf.compat.v1.transpose_70/transpose/perm", "shape": [2], "dtype": "int32"}, {"name": "unknown_262", "shape": [], "dtype": "int32"}, {"name": "unknown_261", "shape": [2, 2], "dtype": "int32"}, {"name": "unknown_267", "shape": [], "dtype": "int32"}, {"name": "PartitionedCall/model/tf.compat.v1.gather_71/GatherV2/indices", "shape": [1], "dtype": "int32"}, {"name": "PartitionedCall/model/tf.compat.v1.gather_71/GatherV2/axis", "shape": [], "dtype": "int32"}, {"name": "PartitionedCall/model/tf.compat.v1.transpose_71/transpose/perm", "shape": [2], "dtype": "int32"}, {"name": "unknown_266", "shape": [], "dtype": "int32"}, {"name": "unknown_265", "shape": [2, 2], "dtype": "int32"}, {"name": "unknown_271", "shape": [], "dtype": "int32"}, {"name": "PartitionedCall/model/tf.compat.v1.gather_72/GatherV2/indices", "shape": [1], "dtype": "int32"}, {"name": "PartitionedCall/model/tf.compat.v1.gather_72/GatherV2/axis", "shape": [], "dtype": "int32"}, {"name": "PartitionedCall/model/tf.compat.v1.transpose_72/transpose/perm", "shape": [2], "dtype": "int32"}, {"name": "unknown_270", "shape": [], "dtype": "int32"}, {"name": "unknown_269", "shape": [2, 2], "dtype": "int32"}, {"name": "unknown_275", "shape": [], "dtype": "int32"}, {"name": "PartitionedCall/model/tf.compat.v1.gather_73/GatherV2/indices", "shape": [1], "dtype": "int32"}, {"name": "PartitionedCall/model/tf.compat.v1.gather_73/GatherV2/axis", "shape": [], "dtype": "int32"}, {"name": "PartitionedCall/model/tf.compat.v1.transpose_73/transpose/perm", "shape": [2], "dtype": "int32"}, {"name": "unknown_274", "shape": [], "dtype": "int32"}, {"name": "unknown_273", "shape": [2, 2], "dtype": "int32"}, {"name": "unknown_279", "shape": [], "dtype": "int32"}, {"name": "PartitionedCall/model/tf.compat.v1.gather_74/GatherV2/indices", "shape": [1], "dtype": "int32"}, {"name": "PartitionedCall/model/tf.compat.v1.gather_74/GatherV2/axis", "shape": [], "dtype": "int32"}, {"name": "PartitionedCall/model/tf.compat.v1.transpose_74/transpose/perm", "shape": [2], "dtype": "int32"}, {"name": "unknown_278", "shape": [], "dtype": "int32"}, {"name": "unknown_277", "shape": [2, 2], "dtype": "int32"}, {"name": "unknown_283", "shape": [], "dtype": "int32"}, {"name": "PartitionedCall/model/tf.compat.v1.gather_75/GatherV2/indices", "shape": [1], "dtype": "int32"}, {"name": "PartitionedCall/model/tf.compat.v1.gather_75/GatherV2/axis", "shape": [], "dtype": "int32"}, {"name": "PartitionedCall/model/tf.compat.v1.transpose_75/transpose/perm", "shape": [2], "dtype": "int32"}, {"name": "unknown_282", "shape": [], "dtype": "int32"}, {"name": "unknown_281", "shape": [2, 2], "dtype": "int32"}, {"name": "unknown_287", "shape": [], "dtype": "int32"}, {"name": "PartitionedCall/model/tf.compat.v1.gather_76/GatherV2/indices", "shape": [1], "dtype": "int32"}, {"name": "PartitionedCall/model/tf.compat.v1.gather_76/GatherV2/axis", "shape": [], "dtype": "int32"}, {"name": "PartitionedCall/model/tf.compat.v1.transpose_76/transpose/perm", "shape": [2], "dtype": "int32"}, {"name": "unknown_286", "shape": [], "dtype": "int32"}, {"name": "unknown_285", "shape": [2, 2], "dtype": "int32"}, {"name": "unknown_291", "shape": [], "dtype": "int32"}, {"name": "PartitionedCall/model/tf.compat.v1.gather_77/GatherV2/indices", "shape": [1], "dtype": "int32"}, {"name": "PartitionedCall/model/tf.compat.v1.gather_77/GatherV2/axis", "shape": [], "dtype": "int32"}, {"name": "PartitionedCall/model/tf.compat.v1.transpose_77/transpose/perm", "shape": [2], "dtype": "int32"}, {"name": "unknown_290", "shape": [], "dtype": "int32"}, {"name": "unknown_289", "shape": [2, 2], "dtype": "int32"}, {"name": "unknown_295", "shape": [], "dtype": "int32"}, {"name": "PartitionedCall/model/tf.compat.v1.gather_78/GatherV2/indices", "shape": [1], "dtype": "int32"}, {"name": "PartitionedCall/model/tf.compat.v1.gather_78/GatherV2/axis", "shape": [], "dtype": "int32"}, {"name": "PartitionedCall/model/tf.compat.v1.transpose_78/transpose/perm", "shape": [2], "dtype": "int32"}, {"name": "unknown_294", "shape": [], "dtype": "int32"}, {"name": "unknown_293", "shape": [2, 2], "dtype": "int32"}, {"name": "unknown_299", "shape": [], "dtype": "int32"}, {"name": "PartitionedCall/model/tf.compat.v1.gather_79/GatherV2/indices", "shape": [1], "dtype": "int32"}, {"name": "PartitionedCall/model/tf.compat.v1.gather_79/GatherV2/axis", "shape": [], "dtype": "int32"}, {"name": "PartitionedCall/model/tf.compat.v1.transpose_79/transpose/perm", "shape": [2], "dtype": "int32"}, {"name": "unknown_298", "shape": [], "dtype": "int32"}, {"name": "unknown_297", "shape": [2, 2], "dtype": "int32"}, {"name": "unknown_303", "shape": [], "dtype": "int32"}, {"name": "PartitionedCall/model/tf.compat.v1.gather_80/GatherV2/indices", "shape": [1], "dtype": "int32"}, {"name": "PartitionedCall/model/tf.compat.v1.gather_80/GatherV2/axis", "shape": [], "dtype": "int32"}, {"name": "PartitionedCall/model/tf.compat.v1.transpose_80/transpose/perm", "shape": [2], "dtype": "int32"}, {"name": "unknown_302", "shape": [], "dtype": "int32"}, {"name": "unknown_301", "shape": [2, 2], "dtype": "int32"}, {"name": "unknown_307", "shape": [], "dtype": "int32"}, {"name": "PartitionedCall/model/tf.compat.v1.gather_81/GatherV2/indices", "shape": [1], "dtype": "int32"}, {"name": "PartitionedCall/model/tf.compat.v1.gather_81/GatherV2/axis", "shape": [], "dtype": "int32"}, {"name": "PartitionedCall/model/tf.compat.v1.transpose_81/transpose/perm", "shape": [2], "dtype": "int32"}, {"name": "unknown_306", "shape": [], "dtype": "int32"}, {"name": "unknown_305", "shape": [2, 2], "dtype": "int32"}, {"name": "unknown_311", "shape": [], "dtype": "int32"}, {"name": "PartitionedCall/model/tf.compat.v1.gather_82/GatherV2/indices", "shape": [1], "dtype": "int32"}, {"name": "PartitionedCall/model/tf.compat.v1.gather_82/GatherV2/axis", "shape": [], "dtype": "int32"}, {"name": "PartitionedCall/model/tf.compat.v1.transpose_82/transpose/perm", "shape": [2], "dtype": "int32"}, {"name": "unknown_310", "shape": [], "dtype": "int32"}, {"name": "unknown_309", "shape": [2, 2], "dtype": "int32"}, {"name": "unknown_315", "shape": [], "dtype": "int32"}, {"name": "PartitionedCall/model/tf.compat.v1.gather_83/GatherV2/indices", "shape": [1], "dtype": "int32"}, {"name": "PartitionedCall/model/tf.compat.v1.gather_83/GatherV2/axis", "shape": [], "dtype": "int32"}, {"name": "PartitionedCall/model/tf.compat.v1.transpose_83/transpose/perm", "shape": [2], "dtype": "int32"}, {"name": "unknown_314", "shape": [], "dtype": "int32"}, {"name": "unknown_313", "shape": [2, 2], "dtype": "int32"}, {"name": "unknown_319", "shape": [], "dtype": "int32"}, {"name": "PartitionedCall/model/tf.compat.v1.gather_84/GatherV2/indices", "shape": [1], "dtype": "int32"}, {"name": "PartitionedCall/model/tf.compat.v1.gather_84/GatherV2/axis", "shape": [], "dtype": "int32"}, {"name": "PartitionedCall/model/tf.compat.v1.transpose_84/transpose/perm", "shape": [2], "dtype": "int32"}, {"name": "unknown_318", "shape": [], "dtype": "int32"}, {"name": "unknown_317", "shape": [2, 2], "dtype": "int32"}, {"name": "unknown_322", "shape": [], "dtype": "int32"}, {"name": "PartitionedCall/model/tf.compat.v1.gather_85/GatherV2/indices", "shape": [1], "dtype": "int32"}, {"name": "PartitionedCall/model/tf.compat.v1.gather_85/GatherV2/axis", "shape": [], "dtype": "int32"}, {"name": "PartitionedCall/model/tf.compat.v1.transpose_85/transpose/perm", "shape": [2], "dtype": "int32"}, {"name": "unknown_321", "shape": [], "dtype": "int32"}, {"name": "unknown_320", "shape": [2, 2], "dtype": "int32"}, {"name": "unknown_325", "shape": [], "dtype": "int32"}, {"name": "PartitionedCall/model/tf.compat.v1.gather_86/GatherV2/indices", "shape": [1], "dtype": "int32"}, {"name": "PartitionedCall/model/tf.compat.v1.gather_86/GatherV2/axis", "shape": [], "dtype": "int32"}, {"name": "PartitionedCall/model/tf.compat.v1.transpose_86/transpose/perm", "shape": [2], "dtype": "int32"}, {"name": "unknown_324", "shape": [], "dtype": "int32"}, {"name": "unknown_323", "shape": [2, 2], "dtype": "int32"}, {"name": "unknown_328", "shape": [], "dtype": "int32"}, {"name": "PartitionedCall/model/tf.compat.v1.gather_87/GatherV2/indices", "shape": [1], "dtype": "int32"}, {"name": "PartitionedCall/model/tf.compat.v1.gather_87/GatherV2/axis", "shape": [], "dtype": "int32"}, {"name": "PartitionedCall/model/tf.compat.v1.transpose_87/transpose/perm", "shape": [2], "dtype": "int32"}, {"name": "unknown_327", "shape": [], "dtype": "int32"}, {"name": "unknown_326", "shape": [2, 2], "dtype": "int32"}, {"name": "unknown_331", "shape": [], "dtype": "int32"}, {"name": "PartitionedCall/model/tf.compat.v1.gather_88/GatherV2/indices", "shape": [1], "dtype": "int32"}, {"name": "PartitionedCall/model/tf.compat.v1.gather_88/GatherV2/axis", "shape": [], "dtype": "int32"}, {"name": "PartitionedCall/model/tf.compat.v1.transpose_88/transpose/perm", "shape": [2], "dtype": "int32"}, {"name": "unknown_330", "shape": [], "dtype": "int32"}, {"name": "unknown_329", "shape": [2, 2], "dtype": "int32"}, {"name": "unknown_334", "shape": [], "dtype": "int32"}, {"name": "PartitionedCall/model/tf.compat.v1.gather_2/GatherV2/indices", "shape": [], "dtype": "int32"}, {"name": "PartitionedCall/model/tf.compat.v1.gather_2/GatherV2/axis", "shape": [], "dtype": "int32"}, {"name": "PartitionedCall/model/tf.compat.v1.gather_3/GatherV2/indices", "shape": [], "dtype": "int32"}, {"name": "PartitionedCall/model/tf.compat.v1.gather_3/GatherV2/axis", "shape": [], "dtype": "int32"}, {"name": "ConstantFolding/PartitionedCall/model/tf.math.divide_1/truediv_recip", "shape": [], "dtype": "float32"}, {"name": "PartitionedCall/model/tf.reshape_7/Reshape/shape", "shape": [3], "dtype": "int32"}, {"name": "PartitionedCall/model/tf.compat.v1.gather/GatherV2/indices", "shape": [], "dtype": "int32"}, {"name": "PartitionedCall/model/tf.compat.v1.gather/GatherV2/axis", "shape": [], "dtype": "int32"}, {"name": "PartitionedCall/model/tf.compat.v1.gather_1/GatherV2/indices", "shape": [], "dtype": "int32"}, {"name": "PartitionedCall/model/tf.compat.v1.gather_1/GatherV2/axis", "shape": [], "dtype": "int32"}, {"name": "ConstantFolding/PartitionedCall/model/tf.math.divide/truediv_recip", "shape": [], "dtype": "float32"}, {"name": "PartitionedCall/model/tf.reshape_6/Reshape/shape", "shape": [3], "dtype": "int32"}, {"name": "PartitionedCall/model/tf.compat.v1.gather_6/GatherV2/indices", "shape": [], "dtype": "int32"}, {"name": "PartitionedCall/model/tf.compat.v1.gather_6/GatherV2/axis", "shape": [], "dtype": "int32"}, {"name": "PartitionedCall/model/tf.compat.v1.gather_7/GatherV2/indices", "shape": [], "dtype": "int32"}, {"name": "PartitionedCall/model/tf.compat.v1.gather_7/GatherV2/axis", "shape": [], "dtype": "int32"}, {"name": "ConstantFolding/PartitionedCall/model/tf.math.divide_3/truediv_recip", "shape": [], "dtype": "float32"}, {"name": "PartitionedCall/model/tf.reshape_9/Reshape/shape", "shape": [3], "dtype": "int32"}, {"name": "PartitionedCall/model/tf.compat.v1.gather_4/GatherV2/indices", "shape": [], "dtype": "int32"}, {"name": "PartitionedCall/model/tf.compat.v1.gather_4/GatherV2/axis", "shape": [], "dtype": "int32"}, {"name": "unknown_3", "shape": [3], "dtype": "int32"}, {"name": "unknown_4", "shape": [3], "dtype": "int32"}, {"name": "unknown_5", "shape": [3], "dtype": "int32"}, {"name": "PartitionedCall/model/tf.compat.v1.gather_5/GatherV2/indices", "shape": [], "dtype": "int32"}, {"name": "PartitionedCall/model/tf.compat.v1.gather_5/GatherV2/axis", "shape": [], "dtype": "int32"}, {"name": "ConstantFolding/PartitionedCall/model/tf.math.divide_2/truediv_recip", "shape": [], "dtype": "float32"}, {"name": "PartitionedCall/model/tf.reshape_8/Reshape/shape", "shape": [3], "dtype": "int32"}, {"name": "PartitionedCall/model/tf.concat_18/concat/axis", "shape": [], "dtype": "int32"}, {"name": "PartitionedCall/model/tf.compat.v1.gather_8/GatherV2/indices", "shape": [1], "dtype": "int32"}, {"name": "PartitionedCall/model/tf.compat.v1.gather_8/GatherV2/axis", "shape": [], "dtype": "int32"}, {"name": "unknown_6", "shape": [3], "dtype": "int32"}, {"name": "unknown_7", "shape": [3], "dtype": "int32"}, {"name": "unknown_8", "shape": [3], "dtype": "int32"}, {"name": "PartitionedCall/model/tf.math.multiply/Mul/y", "shape": [], "dtype": "float32"}, {"name": "PartitionedCall/model/tf.math.add_47/Add/y", "shape": [1, 3, 60, 80, 2], "dtype": "float32"}, {"name": "PartitionedCall/model/tf.math.multiply_2/Mul/y", "shape": [], "dtype": "float32"}, {"name": "PartitionedCall/model/tf.math.multiply_1/Mul/y", "shape": [], "dtype": "float32"}, {"name": "PartitionedCall/model/tf.math.multiply_3/Mul/y", "shape": [1, 3, 60, 80, 2], "dtype": "float32"}, {"name": "PartitionedCall/model/tf.nn.convolution_41/convolution_internal/filters", "shape": [3, 3, 64, 128], "dtype": "float32"}, {"name": "PartitionedCall/model/tf.math.add_41/Add/y", "shape": [128], "dtype": "float32"}, {"name": "PartitionedCall/model/tf.nn.convolution_42/convolution_internal/filters", "shape": [1, 1, 128, 255], "dtype": "float32"}, {"name": "PartitionedCall/model/tf.math.add_42/Add/y", "shape": [255], "dtype": "float32"}, {"name": "PartitionedCall/model/tf.compat.v1.transpose/transpose/perm", "shape": [4], "dtype": "int32"}, {"name": "PartitionedCall/model/tf.reshape/Reshape/shape", "shape": [5], "dtype": "int32"}, {"name": "PartitionedCall/model/tf.compat.v1.transpose_1/transpose/perm", "shape": [5], "dtype": "int32"}, {"name": "PartitionedCall/model/tf.split/Const", "shape": [3], "dtype": "int32"}, {"name": "PartitionedCall/model/tf.split/split/split_dim", "shape": [], "dtype": "int32"}, {"name": "PartitionedCall/model/tf.concat_12/concat/axis", "shape": [], "dtype": "int32"}, {"name": "PartitionedCall/model/tf.reshape_1/Reshape/shape", "shape": [3], "dtype": "int32"}, {"name": "PartitionedCall/model/tf.math.multiply_4/Mul/y", "shape": [], "dtype": "float32"}, {"name": "PartitionedCall/model/tf.math.add_56/Add/y", "shape": [1, 3, 30, 40, 2], "dtype": "float32"}, {"name": "PartitionedCall/model/tf.math.multiply_6/Mul/y", "shape": [], "dtype": "float32"}, {"name": "PartitionedCall/model/tf.math.multiply_5/Mul/y", "shape": [], "dtype": "float32"}, {"name": "PartitionedCall/model/tf.math.multiply_7/Mul/y", "shape": [1, 3, 30, 40, 2], "dtype": "float32"}, {"name": "PartitionedCall/model/tf.nn.convolution_49/convolution_internal/filters", "shape": [3, 3, 128, 256], "dtype": "float32"}, {"name": "PartitionedCall/model/tf.math.add_50/Add/y", "shape": [256], "dtype": "float32"}, {"name": "PartitionedCall/model/tf.nn.convolution_50/convolution_internal/filters", "shape": [1, 1, 256, 255], "dtype": "float32"}, {"name": "PartitionedCall/model/tf.math.add_51/Add/y", "shape": [255], "dtype": "float32"}, {"name": "PartitionedCall/model/tf.compat.v1.transpose_3/transpose/perm", "shape": [4], "dtype": "int32"}, {"name": "PartitionedCall/model/tf.reshape_2/Reshape/shape", "shape": [5], "dtype": "int32"}, {"name": "PartitionedCall/model/tf.compat.v1.transpose_4/transpose/perm", "shape": [5], "dtype": "int32"}, {"name": "PartitionedCall/model/tf.split_1/Const", "shape": [3], "dtype": "int32"}, {"name": "PartitionedCall/model/tf.split_1/split/split_dim", "shape": [], "dtype": "int32"}, {"name": "PartitionedCall/model/tf.concat_15/concat/axis", "shape": [], "dtype": "int32"}, {"name": "PartitionedCall/model/tf.reshape_3/Reshape/shape", "shape": [3], "dtype": "int32"}, {"name": "PartitionedCall/model/tf.math.multiply_8/Mul/y", "shape": [], "dtype": "float32"}, {"name": "PartitionedCall/model/tf.math.add_60/Add/y", "shape": [1, 3, 15, 20, 2], "dtype": "float32"}, {"name": "PartitionedCall/model/tf.math.multiply_10/Mul/y", "shape": [], "dtype": "float32"}, {"name": "PartitionedCall/model/tf.math.multiply_9/Mul/y", "shape": [], "dtype": "float32"}, {"name": "PartitionedCall/model/tf.math.multiply_11/Mul/y", "shape": [1, 3, 15, 20, 2], "dtype": "float32"}, {"name": "PartitionedCall/model/tf.nn.convolution_54/convolution_internal/filters", "shape": [3, 3, 128, 128], "dtype": "float32"}, {"name": "PartitionedCall/model/tf.math.add_55/Add/y", "shape": [128], "dtype": "float32"}, {"name": "PartitionedCall/model/tf.nn.convolution_53/convolution_internal/filters", "shape": [3, 3, 128, 128], "dtype": "float32"}, {"name": "PartitionedCall/model/tf.math.add_54/Add/y", "shape": [128], "dtype": "float32"}, {"name": "PartitionedCall/model/tf.nn.convolution_52/convolution_internal/filters", "shape": [1, 1, 512, 128], "dtype": "float32"}, {"name": "PartitionedCall/model/tf.math.add_53/Add/y", "shape": [128], "dtype": "float32"}, {"name": "PartitionedCall/model/tf.nn.convolution_46/convolution_internal/filters", "shape": [3, 3, 64, 64], "dtype": "float32"}, {"name": "PartitionedCall/model/tf.math.add_46/Add/y", "shape": [64], "dtype": "float32"}, {"name": "PartitionedCall/model/tf.nn.convolution_45/convolution_internal/filters", "shape": [3, 3, 64, 64], "dtype": "float32"}, {"name": "PartitionedCall/model/tf.math.add_45/Add/y", "shape": [64], "dtype": "float32"}, {"name": "PartitionedCall/model/tf.nn.convolution_44/convolution_internal/filters", "shape": [1, 1, 256, 64], "dtype": "float32"}, {"name": "PartitionedCall/model/tf.math.add_44/Add/y", "shape": [64], "dtype": "float32"}, {"name": "PartitionedCall/model/tf.nn.convolution_38/convolution_internal/filters", "shape": [3, 3, 32, 32], "dtype": "float32"}, {"name": "PartitionedCall/model/tf.math.add_38/Add/y", "shape": [32], "dtype": "float32"}, {"name": "PartitionedCall/model/tf.nn.convolution_37/convolution_internal/filters", "shape": [3, 3, 32, 32], "dtype": "float32"}, {"name": "PartitionedCall/model/tf.math.add_37/Add/y", "shape": [32], "dtype": "float32"}, {"name": "PartitionedCall/model/tf.nn.convolution_36/convolution_internal/filters", "shape": [1, 1, 128, 32], "dtype": "float32"}, {"name": "PartitionedCall/model/tf.math.add_36/Add/y", "shape": [32], "dtype": "float32"}, {"name": "PartitionedCall/model/tf.nn.convolution_12/convolution_internal/filters", "shape": [1, 1, 128, 64], "dtype": "float32"}, {"name": "PartitionedCall/model/tf.math.add_12/Add/y", "shape": [64], "dtype": "float32"}, {"name": "PartitionedCall/model/tf.nn.convolution_34/convolution_internal/filters", "shape": [1, 1, 128, 64], "dtype": "float32"}, {"name": "PartitionedCall/model/tf.math.add_34/Add/y", "shape": [64], "dtype": "float32"}, {"name": "PartitionedCall/model/lambda_1/Resize_91/size", "shape": [2], "dtype": "int32"}, {"name": "PartitionedCall/model/tf.concat_8/concat/axis", "shape": [], "dtype": "int32"}, {"name": "PartitionedCall/model/tf.nn.convolution_35/convolution_internal/filters", "shape": [1, 1, 128, 32], "dtype": "float32"}, {"name": "PartitionedCall/model/tf.math.add_35/Add/y", "shape": [32], "dtype": "float32"}, {"name": "PartitionedCall/model/tf.concat_9/concat/axis", "shape": [], "dtype": "int32"}, {"name": "PartitionedCall/model/tf.nn.convolution_39/convolution_internal/filters", "shape": [1, 1, 128, 64], "dtype": "float32"}, {"name": "PartitionedCall/model/tf.math.add_39/Add/y", "shape": [64], "dtype": "float32"}, {"name": "unknown_1", "shape": [4, 2], "dtype": "int32"}, {"name": "PartitionedCall/model/tf.nn.convolution_40/convolution_internal/filters", "shape": [3, 3, 64, 128], "dtype": "float32"}, {"name": "PartitionedCall/model/tf.math.add_40/Add/y", "shape": [128], "dtype": "float32"}, {"name": "PartitionedCall/model/tf.nn.convolution_32/convolution_internal/filters", "shape": [3, 3, 64, 64], "dtype": "float32"}, {"name": "PartitionedCall/model/tf.math.add_32/Add/y", "shape": [64], "dtype": "float32"}, {"name": "PartitionedCall/model/tf.nn.convolution_31/convolution_internal/filters", "shape": [3, 3, 64, 64], "dtype": "float32"}, {"name": "PartitionedCall/model/tf.math.add_31/Add/y", "shape": [64], "dtype": "float32"}, {"name": "PartitionedCall/model/tf.nn.convolution_30/convolution_internal/filters", "shape": [1, 1, 256, 64], "dtype": "float32"}, {"name": "PartitionedCall/model/tf.math.add_30/Add/y", "shape": [64], "dtype": "float32"}, {"name": "PartitionedCall/model/tf.nn.convolution_18/convolution_internal/filters", "shape": [1, 1, 256, 128], "dtype": "float32"}, {"name": "PartitionedCall/model/tf.math.add_18/Add/y", "shape": [128], "dtype": "float32"}, {"name": "PartitionedCall/model/tf.nn.convolution_28/convolution_internal/filters", "shape": [1, 1, 256, 128], "dtype": "float32"}, {"name": "PartitionedCall/model/tf.math.add_28/Add/y", "shape": [128], "dtype": "float32"}, {"name": "PartitionedCall/model/lambda/Resize_70/size", "shape": [2], "dtype": "int32"}, {"name": "PartitionedCall/model/tf.concat_6/concat/axis", "shape": [], "dtype": "int32"}, {"name": "PartitionedCall/model/tf.nn.convolution_29/convolution_internal/filters", "shape": [1, 1, 256, 64], "dtype": "float32"}, {"name": "PartitionedCall/model/tf.math.add_29/Add/y", "shape": [64], "dtype": "float32"}, {"name": "PartitionedCall/model/tf.concat_7/concat/axis", "shape": [], "dtype": "int32"}, {"name": "PartitionedCall/model/tf.nn.convolution_33/convolution_internal/filters", "shape": [1, 1, 256, 128], "dtype": "float32"}, {"name": "PartitionedCall/model/tf.math.add_33/Add/y", "shape": [128], "dtype": "float32"}, {"name": "PartitionedCall/model/tf.concat_10/concat/axis", "shape": [], "dtype": "int32"}, {"name": "PartitionedCall/model/tf.nn.convolution_43/convolution_internal/filters", "shape": [1, 1, 256, 64], "dtype": "float32"}, {"name": "PartitionedCall/model/tf.math.add_43/Add/y", "shape": [64], "dtype": "float32"}, {"name": "PartitionedCall/model/tf.concat_11/concat/axis", "shape": [], "dtype": "int32"}, {"name": "PartitionedCall/model/tf.nn.convolution_47/convolution_internal/filters", "shape": [1, 1, 256, 128], "dtype": "float32"}, {"name": "PartitionedCall/model/tf.math.add_48/Add/y", "shape": [128], "dtype": "float32"}, {"name": "unknown_2", "shape": [4, 2], "dtype": "int32"}, {"name": "PartitionedCall/model/tf.nn.convolution_48/convolution_internal/filters", "shape": [3, 3, 128, 256], "dtype": "float32"}, {"name": "PartitionedCall/model/tf.math.add_49/Add/y", "shape": [256], "dtype": "float32"}, {"name": "PartitionedCall/model/tf.nn.convolution_25/convolution_internal/filters", "shape": [1, 1, 512, 256], "dtype": "float32"}, {"name": "PartitionedCall/model/tf.math.add_25/Add/y", "shape": [256], "dtype": "float32"}, {"name": "PartitionedCall/model/tf.concat_4/concat/axis", "shape": [], "dtype": "int32"}, {"name": "PartitionedCall/model/tf.nn.convolution_26/convolution_internal/filters", "shape": [1, 1, 1024, 256], "dtype": "float32"}, {"name": "PartitionedCall/model/tf.math.add_26/Add/y", "shape": [256], "dtype": "float32"}, {"name": "PartitionedCall/model/tf.nn.convolution_22/convolution_internal/filters", "shape": [3, 3, 256, 256], "dtype": "float32"}, {"name": "PartitionedCall/model/tf.math.add_22/Add/y", "shape": [256], "dtype": "float32"}, {"name": "PartitionedCall/model/tf.nn.convolution_21/convolution_internal/filters", "shape": [3, 3, 256, 256], "dtype": "float32"}, {"name": "PartitionedCall/model/tf.math.add_21/Add/y", "shape": [256], "dtype": "float32"}, {"name": "PartitionedCall/model/tf.nn.convolution_20/convolution_internal/filters", "shape": [1, 1, 256, 256], "dtype": "float32"}, {"name": "PartitionedCall/model/tf.math.add_20/Add/y", "shape": [256], "dtype": "float32"}, {"name": "PartitionedCall/model/tf.nn.convolution_16/convolution_internal/filters", "shape": [3, 3, 128, 128], "dtype": "float32"}, {"name": "PartitionedCall/model/tf.math.add_16/Add/y", "shape": [128], "dtype": "float32"}, {"name": "PartitionedCall/model/tf.nn.convolution_15/convolution_internal/filters", "shape": [3, 3, 128, 128], "dtype": "float32"}, {"name": "PartitionedCall/model/tf.math.add_15/Add/y", "shape": [128], "dtype": "float32"}, {"name": "PartitionedCall/model/tf.nn.convolution_14/convolution_internal/filters", "shape": [1, 1, 128, 128], "dtype": "float32"}, {"name": "PartitionedCall/model/tf.math.add_14/Add/y", "shape": [128], "dtype": "float32"}, {"name": "PartitionedCall/model/tf.nn.convolution_10/convolution_internal/filters", "shape": [3, 3, 64, 64], "dtype": "float32"}, {"name": "PartitionedCall/model/tf.math.add_10/Add/y", "shape": [64], "dtype": "float32"}, {"name": "PartitionedCall/model/tf.nn.convolution_9/convolution_internal/filters", "shape": [3, 3, 64, 64], "dtype": "float32"}, {"name": "PartitionedCall/model/tf.math.add_9/Add/y", "shape": [64], "dtype": "float32"}, {"name": "PartitionedCall/model/tf.nn.convolution_8/convolution_internal/filters", "shape": [1, 1, 64, 64], "dtype": "float32"}, {"name": "PartitionedCall/model/tf.math.add_8/Add/y", "shape": [64], "dtype": "float32"}, {"name": "PartitionedCall/model/tf.nn.convolution_5/convolution_internal/filters", "shape": [3, 3, 32, 32], "dtype": "float32"}, {"name": "PartitionedCall/model/tf.math.add_5/Add/y", "shape": [32], "dtype": "float32"}, {"name": "PartitionedCall/model/tf.nn.convolution_4/convolution_internal/filters", "shape": [3, 3, 32, 32], "dtype": "float32"}, {"name": "PartitionedCall/model/tf.math.add_4/Add/y", "shape": [32], "dtype": "float32"}, {"name": "PartitionedCall/model/tf.nn.convolution_3/convolution_internal/filters", "shape": [1, 1, 64, 32], "dtype": "float32"}, {"name": "PartitionedCall/model/tf.math.add_3/Add/y", "shape": [32], "dtype": "float32"}, {"name": "unknown", "shape": [4, 2], "dtype": "int32"}, {"name": "PartitionedCall/model/tf.nn.convolution/convolution_internal/filters", "shape": [3, 3, 3, 32], "dtype": "float32"}, {"name": "PartitionedCall/model/tf.math.add/Add/y", "shape": [32], "dtype": "float32"}, {"name": "unknown_0", "shape": [4, 2], "dtype": "int32"}, {"name": "PartitionedCall/model/tf.nn.convolution_1/convolution_internal/filters", "shape": [3, 3, 32, 64], "dtype": "float32"}, {"name": "PartitionedCall/model/tf.math.add_1/Add/y", "shape": [64], "dtype": "float32"}, {"name": "PartitionedCall/model/tf.nn.convolution_2/convolution_internal/filters", "shape": [1, 1, 64, 32], "dtype": "float32"}, {"name": "PartitionedCall/model/tf.math.add_2/Add/y", "shape": [32], "dtype": "float32"}, {"name": "PartitionedCall/model/tf.concat/concat/axis", "shape": [], "dtype": "int32"}, {"name": "PartitionedCall/model/tf.nn.convolution_6/convolution_internal/filters", "shape": [1, 1, 128, 64], "dtype": "float32"}, {"name": "PartitionedCall/model/tf.math.add_6/Add/y", "shape": [64], "dtype": "float32"}, {"name": "PartitionedCall/model/tf.nn.convolution_7/convolution_internal/filters", "shape": [1, 1, 64, 64], "dtype": "float32"}, {"name": "PartitionedCall/model/tf.math.add_7/Add/y", "shape": [64], "dtype": "float32"}, {"name": "PartitionedCall/model/tf.concat_1/concat/axis", "shape": [], "dtype": "int32"}, {"name": "PartitionedCall/model/tf.nn.convolution_11/convolution_internal/filters", "shape": [1, 1, 256, 128], "dtype": "float32"}, {"name": "PartitionedCall/model/tf.math.add_11/Add/y", "shape": [128], "dtype": "float32"}, {"name": "PartitionedCall/model/tf.nn.convolution_13/convolution_internal/filters", "shape": [1, 1, 128, 128], "dtype": "float32"}, {"name": "PartitionedCall/model/tf.math.add_13/Add/y", "shape": [128], "dtype": "float32"}, {"name": "PartitionedCall/model/tf.concat_2/concat/axis", "shape": [], "dtype": "int32"}, {"name": "PartitionedCall/model/tf.nn.convolution_17/convolution_internal/filters", "shape": [1, 1, 512, 256], "dtype": "float32"}, {"name": "PartitionedCall/model/tf.math.add_17/Add/y", "shape": [256], "dtype": "float32"}, {"name": "PartitionedCall/model/tf.nn.convolution_19/convolution_internal/filters", "shape": [1, 1, 256, 256], "dtype": "float32"}, {"name": "PartitionedCall/model/tf.math.add_19/Add/y", "shape": [256], "dtype": "float32"}, {"name": "PartitionedCall/model/tf.concat_3/concat/axis", "shape": [], "dtype": "int32"}, {"name": "PartitionedCall/model/tf.nn.convolution_23/convolution_internal/filters", "shape": [1, 1, 1024, 512], "dtype": "float32"}, {"name": "PartitionedCall/model/tf.math.add_23/Add/y", "shape": [512], "dtype": "float32"}, {"name": "PartitionedCall/model/tf.nn.convolution_24/convolution_internal/filters", "shape": [1, 1, 512, 256], "dtype": "float32"}, {"name": "PartitionedCall/model/tf.math.add_24/Add/y", "shape": [256], "dtype": "float32"}, {"name": "PartitionedCall/model/tf.concat_5/concat/axis", "shape": [], "dtype": "int32"}, {"name": "PartitionedCall/model/tf.nn.convolution_27/convolution_internal/filters", "shape": [1, 1, 512, 256], "dtype": "float32"}, {"name": "PartitionedCall/model/tf.math.add_27/Add/y", "shape": [256], "dtype": "float32"}, {"name": "PartitionedCall/model/tf.concat_13/concat/axis", "shape": [], "dtype": "int32"}, {"name": "PartitionedCall/model/tf.nn.convolution_51/convolution_internal/filters", "shape": [1, 1, 512, 128], "dtype": "float32"}, {"name": "PartitionedCall/model/tf.math.add_52/Add/y", "shape": [128], "dtype": "float32"}, {"name": "PartitionedCall/model/tf.concat_14/concat/axis", "shape": [], "dtype": "int32"}, {"name": "PartitionedCall/model/tf.nn.convolution_55/convolution_internal/filters", "shape": [1, 1, 512, 256], "dtype": "float32"}, {"name": "PartitionedCall/model/tf.math.add_57/Add/y", "shape": [256], "dtype": "float32"}, {"name": "PartitionedCall/model/tf.nn.convolution_56/convolution_internal/filters", "shape": [3, 3, 256, 512], "dtype": "float32"}, {"name": "PartitionedCall/model/tf.math.add_58/Add/y", "shape": [512], "dtype": "float32"}, {"name": "PartitionedCall/model/tf.nn.convolution_57/convolution_internal/filters", "shape": [1, 1, 512, 255], "dtype": "float32"}, {"name": "PartitionedCall/model/tf.math.add_59/Add/y", "shape": [255], "dtype": "float32"}, {"name": "PartitionedCall/model/tf.compat.v1.transpose_6/transpose/perm", "shape": [4], "dtype": "int32"}, {"name": "PartitionedCall/model/tf.reshape_4/Reshape/shape", "shape": [5], "dtype": "int32"}, {"name": "PartitionedCall/model/tf.compat.v1.transpose_7/transpose/perm", "shape": [5], "dtype": "int32"}, {"name": "PartitionedCall/model/tf.split_2/Const", "shape": [3], "dtype": "int32"}, {"name": "PartitionedCall/model/tf.split_2/split/split_dim", "shape": [], "dtype": "int32"}, {"name": "PartitionedCall/model/tf.concat_16/concat/axis", "shape": [], "dtype": "int32"}, {"name": "PartitionedCall/model/tf.reshape_5/Reshape/shape", "shape": [3], "dtype": "int32"}, {"name": "PartitionedCall/model/tf.concat_17/concat/axis", "shape": [], "dtype": "int32"}, {"name": "unknown_9", "shape": [3], "dtype": "int32"}, {"name": "unknown_10", "shape": [3], "dtype": "int32"}, {"name": "unknown_11", "shape": [3], "dtype": "int32"}, {"name": "PartitionedCall/model/tf.compat.v1.transpose_9/transpose/perm", "shape": [3], "dtype": "int32"}, {"name": "PartitionedCall/model/tf.compat.v1.gather_9/GatherV2/indices", "shape": [1], "dtype": "int32"}, {"name": "PartitionedCall/model/tf.compat.v1.gather_9/GatherV2/axis", "shape": [], "dtype": "int32"}, {"name": "PartitionedCall/model/tf.compat.v1.gather_89/GatherV2/indices", "shape": [1], "dtype": "int32"}, {"name": "PartitionedCall/model/tf.compat.v1.gather_89/GatherV2/axis", "shape": [], "dtype": "int32"}, {"name": "unknown_19", "shape": [], "dtype": "int32"}, {"name": "unknown_17", "shape": [], "dtype": "float32"}, {"name": "unknown_18", "shape": [], "dtype": "float32"}, {"name": "PartitionedCall/model/tf.compat.v1.transpose_89/transpose/perm", "shape": [2], "dtype": "int32"}, {"name": "unknown_333", "shape": [], "dtype": "int32"}, {"name": "unknown_332", "shape": [2, 2], "dtype": "int32"}, {"name": "unknown_335", "shape": [], "dtype": "int32"}, {"name": "PartitionedCall/model/tf.concat_97/concat/axis", "shape": [], "dtype": "int32"}, {"name": "unknown_336", "shape": [3], "dtype": "int32"}, {"name": "PartitionedCall/model/tf.reshape_10/Reshape/shape", "shape": [2], "dtype": "int32"}, {"name": "PartitionedCall/model/tf.strided_slice_3/StridedSlice/begin", "shape": [2], "dtype": "int32"}, {"name": "PartitionedCall/model/tf.strided_slice_3/StridedSlice/end", "shape": [2], "dtype": "int32"}, {"name": "PartitionedCall/model/tf.strided_slice_3/ones_like", "shape": [2], "dtype": "int32"}, {"name": "ConstantFolding/PartitionedCall/model/tf.compat.v1.transpose_10/transpose/a_const_axis", "shape": [], "dtype": "int32"}, {"name": "ConstantFolding/PartitionedCall/model/tf.compat.v1.transpose_11/transpose/a_const_axis", "shape": [], "dtype": "int32"}, {"name": "ConstantFolding/PartitionedCall/model/tf.compat.v1.transpose_12/transpose/a_const_axis", "shape": [], "dtype": "int32"}, {"name": "ConstantFolding/PartitionedCall/model/tf.compat.v1.transpose_13/transpose/a_const_axis", "shape": [], "dtype": "int32"}, {"name": "ConstantFolding/PartitionedCall/model/tf.compat.v1.transpose_14/transpose/a_const_axis", "shape": [], "dtype": "int32"}, {"name": "ConstantFolding/PartitionedCall/model/tf.compat.v1.transpose_15/transpose/a_const_axis", "shape": [], "dtype": "int32"}, {"name": "ConstantFolding/PartitionedCall/model/tf.compat.v1.transpose_16/transpose/a_const_axis", "shape": [], "dtype": "int32"}, {"name": "ConstantFolding/PartitionedCall/model/tf.compat.v1.transpose_17/transpose/a_const_axis", "shape": [], "dtype": "int32"}, {"name": "ConstantFolding/PartitionedCall/model/tf.compat.v1.transpose_18/transpose/a_const_axis", "shape": [], "dtype": "int32"}, {"name": "ConstantFolding/PartitionedCall/model/tf.compat.v1.transpose_19/transpose/a_const_axis", "shape": [], "dtype": "int32"}, {"name": "ConstantFolding/PartitionedCall/model/tf.compat.v1.transpose_20/transpose/a_const_axis", "shape": [], "dtype": "int32"}, {"name": "ConstantFolding/PartitionedCall/model/tf.compat.v1.transpose_21/transpose/a_const_axis", "shape": [], "dtype": "int32"}, {"name": "ConstantFolding/PartitionedCall/model/tf.compat.v1.transpose_22/transpose/a_const_axis", "shape": [], "dtype": "int32"}, {"name": "ConstantFolding/PartitionedCall/model/tf.compat.v1.transpose_23/transpose/a_const_axis", "shape": [], "dtype": "int32"}, {"name": "ConstantFolding/PartitionedCall/model/tf.compat.v1.transpose_24/transpose/a_const_axis", "shape": [], "dtype": "int32"}, {"name": "ConstantFolding/PartitionedCall/model/tf.compat.v1.transpose_25/transpose/a_const_axis", "shape": [], "dtype": "int32"}, {"name": "ConstantFolding/PartitionedCall/model/tf.compat.v1.transpose_26/transpose/a_const_axis", "shape": [], "dtype": "int32"}, {"name": "ConstantFolding/PartitionedCall/model/tf.compat.v1.transpose_27/transpose/a_const_axis", "shape": [], "dtype": "int32"}, {"name": "ConstantFolding/PartitionedCall/model/tf.compat.v1.transpose_28/transpose/a_const_axis", "shape": [], "dtype": "int32"}, {"name": "ConstantFolding/PartitionedCall/model/tf.compat.v1.transpose_29/transpose/a_const_axis", "shape": [], "dtype": "int32"}, {"name": "ConstantFolding/PartitionedCall/model/tf.compat.v1.transpose_30/transpose/a_const_axis", "shape": [], "dtype": "int32"}, {"name": "ConstantFolding/PartitionedCall/model/tf.compat.v1.transpose_31/transpose/a_const_axis", "shape": [], "dtype": "int32"}, {"name": "ConstantFolding/PartitionedCall/model/tf.compat.v1.transpose_32/transpose/a_const_axis", "shape": [], "dtype": "int32"}, {"name": "ConstantFolding/PartitionedCall/model/tf.compat.v1.transpose_33/transpose/a_const_axis", "shape": [], "dtype": "int32"}, {"name": "ConstantFolding/PartitionedCall/model/tf.compat.v1.transpose_34/transpose/a_const_axis", "shape": [], "dtype": "int32"}, {"name": "ConstantFolding/PartitionedCall/model/tf.compat.v1.transpose_35/transpose/a_const_axis", "shape": [], "dtype": "int32"}, {"name": "ConstantFolding/PartitionedCall/model/tf.compat.v1.transpose_36/transpose/a_const_axis", "shape": [], "dtype": "int32"}, {"name": "ConstantFolding/PartitionedCall/model/tf.compat.v1.transpose_37/transpose/a_const_axis", "shape": [], "dtype": "int32"}, {"name": "ConstantFolding/PartitionedCall/model/tf.compat.v1.transpose_38/transpose/a_const_axis", "shape": [], "dtype": "int32"}, {"name": "ConstantFolding/PartitionedCall/model/tf.compat.v1.transpose_39/transpose/a_const_axis", "shape": [], "dtype": "int32"}, {"name": "ConstantFolding/PartitionedCall/model/tf.compat.v1.transpose_40/transpose/a_const_axis", "shape": [], "dtype": "int32"}, {"name": "ConstantFolding/PartitionedCall/model/tf.compat.v1.transpose_41/transpose/a_const_axis", "shape": [], "dtype": "int32"}, {"name": "ConstantFolding/PartitionedCall/model/tf.compat.v1.transpose_42/transpose/a_const_axis", "shape": [], "dtype": "int32"}, {"name": "ConstantFolding/PartitionedCall/model/tf.compat.v1.transpose_43/transpose/a_const_axis", "shape": [], "dtype": "int32"}, {"name": "ConstantFolding/PartitionedCall/model/tf.compat.v1.transpose_44/transpose/a_const_axis", "shape": [], "dtype": "int32"}, {"name": "ConstantFolding/PartitionedCall/model/tf.compat.v1.transpose_45/transpose/a_const_axis", "shape": [], "dtype": "int32"}, {"name": "ConstantFolding/PartitionedCall/model/tf.compat.v1.transpose_46/transpose/a_const_axis", "shape": [], "dtype": "int32"}, {"name": "ConstantFolding/PartitionedCall/model/tf.compat.v1.transpose_47/transpose/a_const_axis", "shape": [], "dtype": "int32"}, {"name": "ConstantFolding/PartitionedCall/model/tf.compat.v1.transpose_48/transpose/a_const_axis", "shape": [], "dtype": "int32"}, {"name": "ConstantFolding/PartitionedCall/model/tf.compat.v1.transpose_49/transpose/a_const_axis", "shape": [], "dtype": "int32"}, {"name": "ConstantFolding/PartitionedCall/model/tf.compat.v1.transpose_50/transpose/a_const_axis", "shape": [], "dtype": "int32"}, {"name": "ConstantFolding/PartitionedCall/model/tf.compat.v1.transpose_51/transpose/a_const_axis", "shape": [], "dtype": "int32"}, {"name": "ConstantFolding/PartitionedCall/model/tf.compat.v1.transpose_52/transpose/a_const_axis", "shape": [], "dtype": "int32"}, {"name": "ConstantFolding/PartitionedCall/model/tf.compat.v1.transpose_53/transpose/a_const_axis", "shape": [], "dtype": "int32"}, {"name": "ConstantFolding/PartitionedCall/model/tf.compat.v1.transpose_54/transpose/a_const_axis", "shape": [], "dtype": "int32"}, {"name": "ConstantFolding/PartitionedCall/model/tf.compat.v1.transpose_55/transpose/a_const_axis", "shape": [], "dtype": "int32"}, {"name": "ConstantFolding/PartitionedCall/model/tf.compat.v1.transpose_56/transpose/a_const_axis", "shape": [], "dtype": "int32"}, {"name": "ConstantFolding/PartitionedCall/model/tf.compat.v1.transpose_57/transpose/a_const_axis", "shape": [], "dtype": "int32"}, {"name": "ConstantFolding/PartitionedCall/model/tf.compat.v1.transpose_58/transpose/a_const_axis", "shape": [], "dtype": "int32"}, {"name": "ConstantFolding/PartitionedCall/model/tf.compat.v1.transpose_59/transpose/a_const_axis", "shape": [], "dtype": "int32"}, {"name": "ConstantFolding/PartitionedCall/model/tf.compat.v1.transpose_60/transpose/a_const_axis", "shape": [], "dtype": "int32"}, {"name": "ConstantFolding/PartitionedCall/model/tf.compat.v1.transpose_61/transpose/a_const_axis", "shape": [], "dtype": "int32"}, {"name": "ConstantFolding/PartitionedCall/model/tf.compat.v1.transpose_62/transpose/a_const_axis", "shape": [], "dtype": "int32"}, {"name": "ConstantFolding/PartitionedCall/model/tf.compat.v1.transpose_63/transpose/a_const_axis", "shape": [], "dtype": "int32"}, {"name": "ConstantFolding/PartitionedCall/model/tf.compat.v1.transpose_64/transpose/a_const_axis", "shape": [], "dtype": "int32"}, {"name": "ConstantFolding/PartitionedCall/model/tf.compat.v1.transpose_65/transpose/a_const_axis", "shape": [], "dtype": "int32"}, {"name": "ConstantFolding/PartitionedCall/model/tf.compat.v1.transpose_66/transpose/a_const_axis", "shape": [], "dtype": "int32"}, {"name": "ConstantFolding/PartitionedCall/model/tf.compat.v1.transpose_67/transpose/a_const_axis", "shape": [], "dtype": "int32"}, {"name": "ConstantFolding/PartitionedCall/model/tf.compat.v1.transpose_68/transpose/a_const_axis", "shape": [], "dtype": "int32"}, {"name": "ConstantFolding/PartitionedCall/model/tf.compat.v1.transpose_69/transpose/a_const_axis", "shape": [], "dtype": "int32"}, {"name": "ConstantFolding/PartitionedCall/model/tf.compat.v1.transpose_70/transpose/a_const_axis", "shape": [], "dtype": "int32"}, {"name": "ConstantFolding/PartitionedCall/model/tf.compat.v1.transpose_71/transpose/a_const_axis", "shape": [], "dtype": "int32"}, {"name": "ConstantFolding/PartitionedCall/model/tf.compat.v1.transpose_72/transpose/a_const_axis", "shape": [], "dtype": "int32"}, {"name": "ConstantFolding/PartitionedCall/model/tf.compat.v1.transpose_73/transpose/a_const_axis", "shape": [], "dtype": "int32"}, {"name": "ConstantFolding/PartitionedCall/model/tf.compat.v1.transpose_74/transpose/a_const_axis", "shape": [], "dtype": "int32"}, {"name": "ConstantFolding/PartitionedCall/model/tf.compat.v1.transpose_75/transpose/a_const_axis", "shape": [], "dtype": "int32"}, {"name": "ConstantFolding/PartitionedCall/model/tf.compat.v1.transpose_76/transpose/a_const_axis", "shape": [], "dtype": "int32"}, {"name": "ConstantFolding/PartitionedCall/model/tf.compat.v1.transpose_77/transpose/a_const_axis", "shape": [], "dtype": "int32"}, {"name": "ConstantFolding/PartitionedCall/model/tf.compat.v1.transpose_78/transpose/a_const_axis", "shape": [], "dtype": "int32"}, {"name": "ConstantFolding/PartitionedCall/model/tf.compat.v1.transpose_79/transpose/a_const_axis", "shape": [], "dtype": "int32"}, {"name": "ConstantFolding/PartitionedCall/model/tf.compat.v1.transpose_80/transpose/a_const_axis", "shape": [], "dtype": "int32"}, {"name": "ConstantFolding/PartitionedCall/model/tf.compat.v1.transpose_81/transpose/a_const_axis", "shape": [], "dtype": "int32"}, {"name": "ConstantFolding/PartitionedCall/model/tf.compat.v1.transpose_82/transpose/a_const_axis", "shape": [], "dtype": "int32"}, {"name": "ConstantFolding/PartitionedCall/model/tf.compat.v1.transpose_83/transpose/a_const_axis", "shape": [], "dtype": "int32"}, {"name": "ConstantFolding/PartitionedCall/model/tf.compat.v1.transpose_84/transpose/a_const_axis", "shape": [], "dtype": "int32"}, {"name": "ConstantFolding/PartitionedCall/model/tf.compat.v1.transpose_85/transpose/a_const_axis", "shape": [], "dtype": "int32"}, {"name": "ConstantFolding/PartitionedCall/model/tf.compat.v1.transpose_86/transpose/a_const_axis", "shape": [], "dtype": "int32"}, {"name": "ConstantFolding/PartitionedCall/model/tf.compat.v1.transpose_87/transpose/a_const_axis", "shape": [], "dtype": "int32"}, {"name": "ConstantFolding/PartitionedCall/model/tf.compat.v1.transpose_88/transpose/a_const_axis", "shape": [], "dtype": "int32"}, {"name": "ConstantFolding/PartitionedCall/model/tf.compat.v1.transpose_89/transpose/a_const_axis", "shape": [], "dtype": "int32"}]}]}